app/src/main/ml/converted_model_baru.tflite (tflite, 280476 bytes, 16 tensors)

lstm_3/lstm_cell_7/bias f4 [128]
0.05707581 0.04376459 0.033336204 0.06695864 0.07021805 0.11561525 0.016444888 0.026843805
0.038708817 0.029555472 0.058485094 0.0014847908 0.06775247 0.03040937 0.019978702 0.07921389
0.032848254 0.048588187 0.046470847 0.09610597 0.05261645 0.022113979 0.024155168 0.01788677
0.04141772 0.023209458 0.01654008 0.04414274 0.04819502 0.0023074679 0.034849234 0.033220463
1.0115427 1.0257225 1.0213748 1.0239173 1.024138 1.0312874 0.98974097 1.0254264
1.0137093 1.0345631 1.0077102 1.0066296 1.0298194 1.0320578 1.0136569 1.0074245
1.0197074 1.0156997 1.034969 1.0266783 0.98785263 1.0041562 1.0326979 1.0323066
1.0210485 1.0324279 1.0284632 1.0159307 1.0306612 1.0193018 1.0100802 1.0184343
-0.016758893 0.0006452876 -0.010630404 0.012182607 0.0134603195 0.011290875 0.011390712 -0.0049773194
0.0033658647 0.0045424397 -0.01101245 -0.014318556 0.0109320795 -0.0034309146 -0.018852461 0.0036500983
0.0020600497 0.018013785 0.0063077454 0.00086909224 0.0078795375 -0.0016790504 0.015566213 0.003702122
-0.0062473323 -0.010150771 -0.0063060406 0.0050589098 0.027126016 0.00012297546 -0.0076006367 -0.0071127177
0.06944162 0.051102795 0.047574848 0.0750245 0.03413492 0.09104756 0.05522157 0.06637203
0.046229776 0.033190258 0.09110801 0.06784497 0.080070086 0.07824333 0.06665265 0.090114735
0.069145694 0.07863217 0.059186604 0.10162627 0.051786646 0.09069599 0.04012796 0.07985264
0.07434426 0.034749232 0.088782 0.064758696 0.0884743 0.103157915 0.044936743 0.05701705
00000000: 53c8 693d 8042 333d 8b8b 083d 9d21 893d
00000010: 7bce 8f3d b0c7 ec3d 6eb7 863c 8ae7 db3c
00000020: 238d 1e3d 511e f23c 118e 6f3d 509d c23a
00000030: cfc1 8a3d 121d f93c 60aa a33c e43a a23d
00000040: e48b 063d 6804 473d 3758 3e3d 35d3 c43d
00000050: 5984 573d 6028 b53c 0fe1 c53c 4787 923c
00000060: a1a5 293d c321 be3c 107f 873c 05cf 343d
00000070: 2468 453d e338 173b 12be 0e3d 2e12 083d
00000080: 3b7a 813f e04a 833f 69bc 823f b90f 833f
00000090: f416 833f 3a01 843f aa5f 7d3f 2c41 833f
000000a0: 3ac1 813f 906c 843f a6fc 803f 3dd9 803f
000000b0: 1fd1 833f 781a 843f 82bf 813f 49f3 803f
000000c0: c685 823f 7302 823f dd79 843f 326a 833f
000000d0: e9e3 7c3f 3188 803f 722f 843f 9f22 843f
000000e0: b8b1 823f 9926 843f afa4 833f 040a 823f
000000f0: b5ec 833f 7b78 823f 4f4a 813f 0e5c 823f
00000100: f249 89bc 8528 293a 252b 2ebc 8f99 473c
00000110: ac88 5c3c 5dfd 383c 1ca0 3a3c c818 a3bb
00000120: d795 5c3b bfd8 943b 906d 34bc 6098 6abc
00000130: 771c 333c 32d9 60bb 7a70 9abc 7d36 6f3b
00000140: e601 073b a591 933c 34b1 ce3b cbd3 633a
00000150: 2d19 013c 9513 dcba 6e09 7f3c 4d9f 723b
00000160: 6cb6 ccbb 6b4f 26bc e7a2 cebb 36c5 a53b
00000170: 6137 de3c f9f2 0039 c30e f9bb cd11 e9bb
00000180: 6837 8e3d 2a51 513d d8dd 423d 72a6 993d
00000190: 0fd1 0b3d 2577 ba3d 0330 623d 0fee 873d
000001a0: 6f5b 3d3d 82f2 073d d696 ba3d 4ef2 8a3d
000001b0: c9fb a33d 0a3e a03d 2f81 883d 138e b83d
000001c0: 429c 8d3d e709 a13d a76d 723d 6f21 d03d
000001d0: 3c1e 543d d2be b93d 375d 243d c889 a33d
000001e0: ce41 983d 3655 0e3d 56d3 b53d 35a0 843d
000001f0: 0432 b53d 7544 d33d 970f 383d b68a 693d

dense_3/bias f4 [16]
0.05569508 0.0440588 -0.011553938 -0.050227344 -0.036356155 -0.00017411361 0.027272554 0.013388498
0.014254022 0.00644429 -0.025020763 -0.0017410382 -0.04414328 -0.029589804 -0.005103526 0.033962186
00000000: 8620 643d 0077 343d ba4c 3dbc 30bb 4dbd
00000010: 31ea 14bd 4492 36b9 b16a df3c 6e5b 5b3c
00000020: b489 693c 9f2a d33b 58f8 ccbc 8c33 e4ba
00000030: 95cf 34bd 5166 f2bc 7b3b a7bb ef1b 0b3d

dense_2/bias f4 [128]
0.064024135 0.038329024 0.10220334 0.05215813 0.13439582 0.05858523 0.14370513 0.07588976
0.07761367 0.012127758 0.15236327 0.08892 0.10659822 0.056037195 0.11230578 0.03029069
0.05471778 0.111999825 0.12541458 0.13327909 0.050955385 0.08861076 0.028257798 0.06085423
0.095691316 0.10453959 0.123025745 0.115481585 0.0647132 0.101904176 0.041561525 0.022187283
0.12824911 0.050222997 0.07303399 0.13074802 0.09300039 0.16219887 0.06054727 0.12896752
0.035052426 0.13120975 0.1224776 0.10560489 0.13105677 0.0363961 0.10375907 0.07928281
0.1113094 0.07241364 0.11060052 0.10272665 0.12427078 0.10910831 0.08868773 0.17619175
0.079576686 0.057546217 0.110179536 0.0880198 0.15160508 0.11493562 0.0504152 0.13164805
0.16964647 0.083418824 0.013571014 0.11666474 0.013287401 0.07353101 0.063129544 0.07716622
0.045503233 0.1193941 0.10493798 0.11313066 0.08420783 0.0890752 0.11701006 0.10989846
0.1153464 0.12788546 0.14098088 0.135203 0.13451532 0.09705359 0.05948712 0.10917464
0.08410284 0.08953751 0.10815745 0.09166101 0.020182515 0.040161304 0.108763985 0.08689936
0.11076971 0.04325021 0.076018415 0.07374831 0.09696986 0.118185736 0.11840522 0.032454852
0.07099007 -0.004528274 0.11806768 0.13105392 0.192967 0.08588745 0.02363389 0.13228455
0.06736464 -0.03621975 0.13848725 0.07047536 0.12950563 0.17052215 0.04737131 0.10996938
0.076266415 0.08183285 0.11913552 0.09003608 0.11353268 0.07498098 0.023365099 0.05542606
00000000: 161f 833d e5fe 1c3d fc4f d13d c3a3 553d
00000010: 0f9f 093e 11f7 6f3d 7027 133e 176c 9b3d
00000020: eaf3 9e3d 81b3 463c 1e05 1c3e b01b b63d
00000030: 2b50 da3d 4287 653d 9300 e63d 2e24 f83c
00000040: c01f 603d 2a60 e53d ae6c 003e 507a 083e
00000050: 98b6 503d 8f79 b53d e67c e73c 4942 793d
00000060: cff9 c33d da18 d63d ecf4 fb3d 9c81 ec3d
00000070: 5b88 843d 23b3 d03d 6b3c 2a3d 1bc2 b53c
00000080: bc53 033e a1b6 4d3d d892 953d cfe2 053e
00000090: fd76 be3d 7617 263e 6a00 783d 1010 043e
000000a0: 2293 0f3d d95b 063e 89d5 fa3d 6047 d83d
000000b0: bf33 063e 1414 153d a37f d43d 075f a23d
000000c0: 2ff6 e33d 9a4d 943d 8782 e23d 5a62 d23d
000000d0: ae81 fe3d 2d74 df3d eaa1 b53d 9c6b 343e
000000e0: 1af9 a23d 95b5 6b3d cfa5 e13d ba43 b43d
000000f0: 5d3e 1b3e 5e63 eb3d 2b80 4e3d bfce 063e
00000100: ceb7 2d3e 7dd7 aa3d f558 5e3c eced ee3d
00000110: 66b3 593c 6d97 963d 104a 813d 5309 9e3d
00000120: 9961 3a3d e584 f43d b9e9 d63d 0cb1 e73d
00000130: 2875 ac3d 0f6d b63d f8a2 ef3d 7212 e13d
00000140: bc3a ec3d 68f4 023e 4b5d 103e a872 0a3e
00000150: 62be 093e 08c4 c63d c4a8 733d f496 df3d
00000160: 1c3e ac3d 715f b73d a781 dd3d c5b8 bb3d
00000170: cd55 a53c 2e80 243d a7bf de3d 4bf8 b13d
00000180: 3bdb e23d 2227 313d 8baf 9b3d 5b09 973d
00000190: 2298 c63d 5d0b f23d 707e f23d 61ef 043d
000001a0: 3e63 913d ea61 94bb 78cd f13d 0033 063e
000001b0: 2499 453e c2e5 af3d dc9b c13c 9a75 073e
000001c0: 79f6 893d 295b 14bd 9acf 0d3e 6355 903d
000001d0: 209d 043e 5c9d 2e3e 6b08 423d a037 e13d
000001e0: 9131 9c3d fb97 a73d 53fd f33d d664 b83d
000001f0: d283 e83d a18f 993d 2a68 bf3c 7006 633d

bidirectional_1/forward_lstm_2/lstm_cell_5/bias f4 [256]
0.011671291 0.036813274 0.034045838 0.03581678 0.02288849 0.0048975213 -0.0054110303 0.030537156
0.022319773 -0.012530787 0.023887504 -0.00050551066 0.019578386 0.030678945 0.02841428 0.008512112
0.012292659 0.007308066 0.023043822 0.008370553 0.026185403 0.053124446 0.019031355 0.034295563
0.015034429 0.023659911 0.039821196 0.0130939 0.011273993 0.022090733 0.02224819 0.020594774
0.011549044 0.0064506214 0.020264463 0.025619572 0.026654294 0.04363971 0.005830177 0.014926254
0.023981374 0.0063512893 0.030524781 0.036431655 0.026023824 0.028377604 0.019044193 0.0130765755
0.0299395 0.029471952 -0.00324734 0.019511584 0.021434706 0.024084248 -0.012352745 -0.007102939
0.006870468 0.03873177 0.021932919 0.026400646 0.03311196 0.028227007 0.03874083 0.0034084602
1.0122241 1.0396383 1.0188048 1.0025839 0.99952835 1.0244874 1.0003849 1.0266773
1.0217599 1.015473 1.0218898 1.0017701 1.0389694 1.0285785 1.038322 1.0120465
1.0045191 1.0052958 1.0154793 1.0176011 1.0108436 1.0039889 1.025053 0.98988473
1.0172619 0.9919671 1.0152277 1.020714 1.0149583 1.0240241 1.0277035 1.0114197
1.0137756 0.9987758 1.0155805 1.0355145 1.0153947 1.0243171 1.0031211 1.0246094
1.0246941 1.0029095 1.0160251 1.0252305 1.0061986 1.0300058 1.0200144 1.0171001
1.0174466 1.0264268 1.000567 1.0167636 0.98791933 1.0238295 0.9888644 0.9818605
1.0064758 1.0391773 0.98849857 1.0259919 1.0400648 1.0324715 1.0189332 1.0036669
0.001264366 0.0056882566 0.019834442 -0.016496895 -0.011904858 0.013038168 -0.012843092 0.031185662
-0.01920564 0.00425425 0.001839058 -0.012111078 0.002954022 0.026467288 -0.027516395 -0.0076038064
0.009056002 0.023559928 -0.005784123 -0.030987842 0.00852105 0.021501925 0.012669771 0.007468489
0.021001717 0.014166127 -0.0059638745 0.030940676 -0.017564809 -0.023768097 -0.026766911 -0.0060480386
-0.0053845434 0.001522614 -0.0059247413 0.02151228 0.0002457354 -0.002240257 0.02580168 0.01938097
-0.019206265 -0.010916221 0.010431588 -0.0026390862 0.018467598 0.024308238 -0.022876741 0.0037846954
0.018473653 0.026145523 -0.006109529 0.004070822 -0.015423277 -0.0028641613 0.002142939 -0.0315364
0.0162648 -0.03198431 0.017550234 0.020976985 0.02832152 -0.02411234 -0.012912179 0.005706994
0.040661518 0.024275053 0.034051206 0.020508785 0.023934668 0.018064212 0.009728051 0.033760842
0.01973807 0.012277646 0.023332126 0.011674978 0.019449646 0.033737984 0.044252075 0.014913814
0.0042434162 0.025338156 0.032986872 0.03950307 0.014048533 0.03169639 0.04206155 0.03340921
0.022457339 0.029604185 0.026124911 0.014213874 0.03397116 0.034193836 0.024517944 0.009988064
0.018667847 0.03000922 0.016494902 0.029255947 0.03565797 0.01809018 0.0008858593 0.022640195
0.02349975 -0.004886375 0.030215068 0.026324332 0.0031751252 0.034167334 0.034539096 0.023386585
0.019955123 0.02813638 0.01661612 0.010843508 0.009521616 0.012337008 -0.003992939 -0.0010737615
0.009059741 0.039743066 0.02225722 0.023841947 0.030854402 0.033988647 0.026797201 0.011382189
00000000: f138 3f3c 84c9 163d a673 0b3d 9eb4 123d
00000010: a580 bb3c 637b a03b 034f b1bb 0f29 fa3c
00000020: f5d7 b63c ee4d 4dbc baaf c33c 3f84 04ba
00000030: da62 a03c 6952 fb3c 10c5 e83c 6376 0b3c
00000040: 2667 493c 8078 ef3b 66c6 bc3c a524 093c
00000050: c582 d63c 0599 593d a5e7 9b3c 8179 0c3d
00000060: f752 763c 6ed2 c13c 8d1b 233d cc87 563c
00000070: 8eb6 383c a0f7 b43c d641 b63c 5fb6 a83c
00000080: 3438 3d3c bc5f d33b a901 a63c 23e0 d13c
00000090: 1b5a da3c 8dbf 323d 120b bf3b 3f8d 743c
000000a0: 9674 c43c 7a1e d03b 1b0f fa3c 5c39 153d
000000b0: ea2f d53c 2678 e83c 9102 9c3c 223f 563c
000000c0: af43 f53c 2a6f f13c 53d1 54bb c2d6 9f3c
000000d0: d697 af3c 544c c53c 2b63 4abc c5bf e8bb
000000e0: aa21 e13b 34a5 1e3d aaac b33c 2b46 d83c
000000f0: 68a0 073d 533c e73c b4ae 1e3d 7960 5f3b
00000100: 8f90 813f de12 853f 3268 823f ab54 803f
00000110: 17e1 7f3f 6722 833f 9d0c 803f 296a 833f
00000120: 07c9 823f 05fb 813f 49cd 823f 013a 803f
00000130: f3fc 843f 76a8 833f bce7 843f bd8a 813f
00000140: 1594 803f 88ad 803f 3afb 813f c140 823f
00000150: 5363 813f b582 803f f034 833f 1669 7d3f
00000160: a335 823f 8ef1 7d3f fbf2 813f c2a6 823f
00000170: 27ea 813f 3913 833f ca8b 833f 3376 813f
00000180: 66c3 813f c5af 7f3f 8bfe 813f bd8b 843f
00000190: 74f8 813f d31c 833f 4666 803f 6726 833f
000001a0: 2d29 833f 575f 803f 1c0d 823f c13a 833f
000001b0: 1ecb 803f 3bd7 833f d58f 823f 5630 823f
000001c0: b13b 823f f461 833f 9412 803f 4f25 823f
000001d0: 48e8 7c3f d80c 833f 3826 7d3f 365b 7b3f
000001e0: 33d4 803f c303 853f 3e0e 7d3f b453 833f
000001f0: d820 853f 0728 843f 676c 823f 2878 803f
00000200: 15b9 a53a 8e64 ba3b d77b a23c 7f24 87bc
00000210: 980c 43bc 0a9e 553c d56b 52bc 1379 ff3c
00000220: 2555 9dbc 3c67 8b3b 8c0c f13a 8b6d 46bc
00000230: 4498 413b edd1 d83c 106a e1bc 5a29 f9bb
00000240: a05f 143c c000 c13c be88 bdbb 37da fdbc
00000250: e09b 0b3c ce24 b03c df94 4f3c 3aba f43b
00000260: cb0b ac3c 0b19 683c 9b6c c3bb 4d77 fd3c
00000270: 13e4 8fbc 50b5 c2bc 4846 dbbc a02e c6bb
00000280: d370 b0bb 7392 c73a 5524 c2bb 853a b03c
00000290: 0cd6 8039 47d1 12bb 0b5e d33c d7c4 9e3c
000002a0: 7556 9dbc f3d9 32bc 40e9 2a3c 85f4 2cbb
000002b0: 5c49 973c 1222 c73c 0168 bbbc a708 783b
000002c0: 0f56 973c 232f d63c 7232 c8bb 8864 853b
000002d0: eab1 7cbc a7b4 3bbb 8d70 0c3b 502c 01bd
000002e0: c23d 853c fb01 03bd 82c5 8f3c edd7 ab3c
000002f0: 8802 e83c 3e87 c5bc 9b8d 53bc bc01 bb3b
00000300: b18c 263d 7adc c63c 4779 0b3d 0a02 a83c
00000310: a312 c43c 66fb 933c 6762 1f3c cf48 0a3d
00000320: bcb1 a13c 2e28 493c 0423 bf3c 6848 3f3c
00000330: dd54 9f3c d730 0a3d aa41 353d 1259 743c
00000340: 5b0c 8b3b f791 cf3c 3e1d 073d f9cd 213d
00000350: d12b 663c 13d4 013d bb48 2c3d 19d8 083d
00000360: 74f8 b73c 7a84 f23c e903 d63c 4fe1 683c
00000370: 5825 0b3d d60e 0c3d dbd9 c83c faa4 233c
00000380: 50ed 983c e5d5 f53c 5120 873c 2baa ef3c
00000390: 170e 123d db31 943c 0339 683a ee77 b93c
000003a0: 8c82 c03c e21d a0bb 9785 f73c 20a6 d73c
000003b0: c315 503b 0cf3 0b3d de78 0d3d 3995 bf3c
000003c0: ed78 a33c 447e e63c 871e 883c f8a8 313c
000003d0: 8d00 1c3c 2921 4a3c 33d7 82bb 75bd 8cba
000003e0: 4f6f 143c a0c9 223d c654 b63c 3050 c33c
000003f0: 5fc2 fc3c ae37 0b3d ce85 db3c 5c7c 3a3c

bidirectional_1/backward_lstm_2/lstm_cell_6/bias f4 [256]
0.02443791 -0.0005142918 0.015775066 0.09512879 0.02403161 0.013361568 0.018305704 0.018735847
0.025640775 0.018436546 0.018049665 0.047953345 0.032962635 0.024848614 0.01405886 0.009253863
0.009995501 0.047611665 0.021334663 0.01592262 0.024559421 0.0061770664 0.05386502 0.010165096
0.029521268 0.020465534 0.052295998 0.0012854801 0.016581852 0.014359715 0.060136445 0.012701063
0.021975366 0.02369423 0.3182555 0.011372669 0.01658571 0.06399735 0.041404754 0.0028631897
0.017053885 0.03993009 0.018229442 0.0036566511 0.0092220055 0.0043295543 0.0066393027 0.023969289
0.006439349 0.010887264 0.011337837 0.003947773 0.009953148 0.015557592 0.0023590906 0.02114184
0.0149816135 0.0136298975 0.008978213 0.048398808 0.02959511 0.058990028 -0.0066750613 0.011532214
1.0179774 0.9978528 1.0340521 1.0903238 1.0097766 1.0227485 1.009033 1.0130919
1.0027579 1.0236903 1.0125428 1.0461092 1.0148838 1.0190122 1.0157503 1.041806
1.0091466 1.0398773 1.023169 1.0207117 1.0256749 1.0082875 1.0507805 0.9925761
1.0058373 1.0179687 1.0276746 0.9995449 1.0010844 1.0087904 1.0632042 1.0094756
1.0201881 1.0115429 1.2255756 1.0173826 1.0142728 1.0502739 1.0425365 1.0015769
1.0161952 1.0272306 1.0205628 1.0039997 1.0098716 1.0118173 1.0131459 1.0175382
1.0028839 1.009452 1.010553 1.0238901 1.0031506 1.018968 1.0068624 1.02674
1.0048239 1.0088408 1.0180445 1.010493 1.0397547 1.0329762 0.99609166 1.0105551
-0.017192045 -6.738586e-05 -0.0017458984 0.021844307 -0.020483147 0.0032480909 0.012149861 0.021841457
-0.021834908 0.0056288936 0.0318728 -0.0052374494 0.030223304 0.013202114 0.019425884 -0.06808984
0.0072381394 0.021778801 0.074197344 0.009992107 0.0045857145 0.010057674 0.016699106 0.024884626
0.06274378 -0.010414658 -0.024470609 -0.00947794 0.016101556 -0.0022344077 -0.042140584 0.0068432754
0.041867197 0.026448837 -0.031522345 -0.07121279 -0.0044316715 -0.0196501 -0.010198825 0.021522671
0.005821946 -0.018779408 0.00185821 -0.012188566 0.023867229 -0.021027276 -0.03205676 -0.016732348
-0.021491744 -0.01278741 0.026314236 0.020044327 -0.020949604 0.03927276 -0.03140897 -0.010922175
0.016063241 0.011682292 0.033683 -0.008122909 -0.0017834534 -0.09303935 0.008260638 -0.01475588
0.023809366 -0.0045644655 0.027847111 0.017550452 0.010088268 0.024643624 0.020372506 0.017257998
0.0105708195 0.03320057 0.019794997 0.039412588 0.004213673 0.023177765 0.01530251 0.013869581
0.011103095 0.022063222 0.028745476 0.030904723 0.017786901 0.013819962 0.035447586 0.01839395
0.016747879 0.03162648 0.01899125 0.006225601 0.007928745 0.008074925 0.03132095 0.015215812
0.023961218 0.019113509 0.016231515 0.03053294 0.011748221 0.0569766 0.031279 0.005153069
0.00637695 0.025529243 0.021826835 0.01977783 0.005848559 0.018495508 0.011525821 0.025752345
0.015277666 0.013094753 0.009896978 0.014144357 0.0038109699 0.021445531 0.0070149107 0.024748316
0.009458885 0.012414031 0.014749492 -0.00097642164 0.04739307 0.021593938 -0.0063045537 0.009767897
00000000: 0332 c83c 8ad1 06ba b63a 813c e2d2 c23d
00000010: f0dd c43c 7aea 5a3c d8f5 953c eb7b 993c
00000020: 9a0c d23c 3d08 973c e4dc 933c ba6a 443d
00000030: d403 073d 528f cb3c 2257 663c 849d 173c
00000040: 2bc4 233c 7304 433d 08c6 ae3c 2870 823c
00000050: d730 c93c fd68 ca3b 91a1 5c3d 818b 263c
00000060: 96d6 f13c 56a7 a73c 5434 563d 8e7d a83a
00000070: aad6 873c 0345 6b3c a251 763d 1f18 503c
00000080: af05 b43c 671a c23c 63f2 a23e 6e54 3a3c
00000090: c1de 873c 0b11 833d 0898 293d 5aa4 3b3b
000000a0: 97b4 8b3c bc8d 233d e955 953c 6da4 6f3b
000000b0: e517 173c efde 8d3b 828e d93b 3e5b c43c
000000c0: 2d01 d33b 7f60 323c 56c2 393c 525c 813b
000000d0: 8712 233c 45e5 7e3c f99a 1a3b a731 ad3c
000000e0: 7175 753c ef4f 5f3c 5b19 133c d43d 463d
000000f0: 7271 f23c 879f 713d 79ba dabb 9cf1 3c3c
00000100: 154d 823f 4873 7f3f d25b 843f bb8f 8b3f
00000110: 5c40 813f 6ce9 823f fe27 813f ffac 813f
00000120: 5f5a 803f 4908 833f 019b 813f e8e6 853f
00000130: b6e7 813f fe6e 823f 1b04 823f e659 853f
00000140: b72b 813f b31a 853f 34f7 823f aea6 823f
00000150: 5149 833f 910f 813f fa7f 863f 7819 7e3f
00000160: 47bf 803f cc4c 823f d78a 833f 2de2 7f3f
00000170: 8923 803f 0b20 813f 1317 883f 7f36 813f
00000180: 8695 823f 3d7a 813f a9df 9c3f 9839 823f
00000190: b1d3 813f 606f 863f d671 853f ac33 803f
000001a0: af12 823f 4b7c 833f cda1 823f 1083 803f
000001b0: 7943 813f 3b83 813f c4ae 813f b13e 823f
000001c0: 805e 803f b935 813f cd59 813f d50e 833f
000001d0: 3d67 803f 8b6d 823f dee0 803f 376c 833f
000001e0: 129e 803f b221 813f 484f 823f d657 813f
000001f0: af16 853f 9038 843f ddff 7e3f df59 813f
00000200: 55d6 8cbc 8251 8db8 a1d6 e4ba d5f2 b23c
00000210: 46cc a7bc ecdd 543b 3610 473c dbec b23c
00000220: 1fdf b2bc 9572 b83b 0e8d 023d e99e abbb
00000230: dd96 f73c ae4d 583c 0823 9f3c b072 8bbd
00000240: ea2d ed3b 7569 b23c c7f4 973d efb5 233c
00000250: c343 963b f1c8 243c 90cc 883c d8da cb3c
00000260: d07f 803d 3ea2 2abc 9676 c8bc 5d49 1bbc
00000270: 69e7 833c 246f 12bb 9b9b 2cbd 8e3d e03b
00000280: f07c 2b3d 3bab d83c 931d 01bd 03d8 91bd
00000290: 8e37 91bb 3ff9 a0bc f918 27bc 5050 b03c
000002a0: 06c6 be3b 46d7 99bc 2e8f f33a 8db2 47bc
000002b0: 3585 c33c 6541 acbc f34d 03bd 4712 89bc
000002c0: 740f b0bc 4982 51bc f490 d73c 0034 a43c
000002d0: 819e abbc 79dc 203d b1a6 00bd ecf2 32bc
000002e0: 0f97 833c 1667 3f3c 2ff7 093d f315 05bc
000002f0: c4c2 e9ba 6a8b bebd a157 073c a6c2 71bc
00000300: dc0b c33c 8391 95bb a01f e43c f7c5 8f3c
00000310: 4349 253c 6de1 c93c 3ee4 a63c a560 8d3c
00000320: 3b31 2d3c 52fd 073d 1e29 a23c 186f 213d
00000330: da12 8a3b 4cdf bd3c 61b7 7a3c 3d3d 633c
00000340: c1e9 353c eebd b43c a27b eb3c e72b fd3c
00000350: d6b5 913c 1f6d 623c 7d31 113d e9ae 963c
00000360: d932 893c c58a 013d 8a93 9b3c 2000 cc3b
00000370: 91e7 013c b14c 043c 654a 003d be4b 793c
00000380: 514a c43c ef93 9c3c f4f7 843c 3720 fa3c
00000390: 9c7b 403c 4c60 693d 691e 003d 13db a83b
000003a0: bcf5 d03b b422 d13c 31ce b23c 1e05 a23c
000003b0: 45a5 bf3b e483 973c ccd6 3c3c 95f6 d23c
000003c0: 2d4f 7a3c 608b 563c ef26 223c bcbd 673c
000003d0: 77c1 793b 8aae af3c 56dd e53b fbbc ca3c
000003e0: 70f9 1a3c 3864 4b3c daa7 713c 8cf6 7fba
000003f0: 3c1f 423d c5e5 b03c 6e96 cebb 8809 203c

sequential_1/dense_2/MatMul f4 [128, 32]
-0.1815435 -0.010452539 -0.0825989 0.41835135 -0.043984104 -0.28721347 0.08855496 0.085041635
0.17429483 -0.1034118 -0.04389506 -0.08241113 -0.082314186 -0.10086386 0.097522505 -0.06862057
0.031257134 -0.10754037 -0.2503453 0.087995976 -0.047494255 -0.18864675 -0.16337869 0.31560552
-0.17272493 0.19743516 -0.031981237 -0.06995181 -0.21779531 -0.0057725604 0.16099413 -0.08300666
0.22768436 -0.09550285 0.10466261 -0.005814824 0.10772819 -0.23271163 -0.001474447 0.088939674
-0.059409857 -0.0890039 0.0067035537 -0.12201901 -0.054009244 -0.026319092 0.027478 -0.038832754
-0.24516132 -0.19270222 -0.24627516 -0.07359948 0.09784711 0.03763689 0.0135421 -0.15326552
-0.17464606 0.09819207 0.050071377 -0.047854543 0.044732872 0.25434634 -0.032719553 0.09629564
0.044100616 -0.35934007 -0.23501249 0.05196775 0.11989244 0.28034985 -0.2709605 0.042181186
-0.21759547 0.1396861 0.32739845 0.13249314 0.033590436 0.25835633 0.071691535 0.3926771
-0.048005115 0.15072086 0.051307894 0.09143595 -0.06693589 0.29764417 0.124854505 0.12339426
0.2104969 -0.07132592 -0.0384935 0.03095282 0.22083133 -0.020694902 0.1784656 0.030925542
0.1429125 0.19082905 0.117131755 -0.24743983 0.076089926 -0.051672194 0.01662334 -0.043487072
0.07249068 0.011964091 -0.026621599 -0.12691532 0.17702523 0.07982062 0.23296697 -0.3313844
0.046434645 0.0873722 -0.059654556 -0.15645266 0.016899077 -0.30275247 0.1265034 -0.08087595
0.057152174 0.14700681 -0.07164502 -0.15250091 -0.27064663 0.10751161 0.093389705 0.064536065
-0.1491714 -0.0020136654 -0.23855813 -0.13646242 0.12634335 0.15417627 -0.1699731 0.06005808
-0.18058948 0.10298269 -0.26737422 -0.23304294 0.18303338 -0.102376334 0.36244422 0.22893852
-0.08518228 -0.2120754 -0.32347298 -0.0954595 0.09312761 -0.18726768 -0.2061144 0.16773914
-0.21369459 -0.030656528 0.056238737 -0.058581214 -0.04512175 -0.08250593 -0.3919039 -0.02324188
-0.1015896 0.116645016 0.07377923 0.07446342 0.09382237 0.1438853 0.17325485 0.15920559
0.04574135 -0.07002791 -0.23682347 0.09576165 -0.025742058 -0.2238468 -0.21823311 0.097702555
-0.07297273 -0.018106513 0.20930347 0.26236132 0.04650316 0.09448998 0.07495758 0.09288809
-0.03345741 -0.21633273 -0.06455119 -0.12892452 -0.11949717 0.0068311538 -0.07442869 -0.1457898
0.119240746 -0.23459515 -0.2643446 -0.025960743 0.1756442 0.15683028 0.18359445 0.054872464
-0.27938285 -0.03891012 -0.2731799 -0.12739596 0.059427563 0.031777747 -0.11378597 0.02381718
0.15577467 0.061308745 -0.27072287 -0.010130804 0.15415043 0.059003744 0.12904708 0.2536672
-0.07969615 0.016597994 -0.26544133 -0.078947484 0.27489632 0.18888718 -0.24249175 -0.07754783
-0.056311596 0.22286285 -0.16578242 0.046742167 0.2230602 -0.100042745 -0.286293 0.040863413
0.2338041 -0.081679806 0.11315964 -0.032946207 -0.013155137 0.11395284 0.041482512 0.12449096
-0.29071823 0.10680797 0.16354807 -0.18913408 -0.28408676 0.035887267 0.12495692 -0.20277323
-0.07053061 -0.17312987 0.24437739 0.026159652 -0.03734282 0.1524241 0.21098405 0.21529302
00000000: 8ae6 39be 2041 2bbc 9d29 a9bd 2632 d63e
00000010: ad28 34bd a50d 93be 4e5c b53d 4f2a ae3d
00000020: 587a 323e 91c9 d3bd 4ecb 33bd 2bc7 a8bd
00000030: 5794 a8bd b691 cebd e1b9 c73d f188 8cbd
00000040: 7b07 003d 203e dcbd 422d 80be 3c37 b43d
00000050: 5689 42bd 9d2c 41be be4c 27be 0c97 a13e
00000060: cede 30be 712c 4a3e c2fe 02bd e542 8fbd
00000070: bc05 5fbe bf27 bdbb a5db 243e 65ff a9bd
00000080: 1726 693e 0097 c3bd 5a59 d63d 478a bebb
00000090: 99a0 dc3d f54b 6ebe 3b42 c1ba 0126 b63d
000000a0: c057 73bd ad47 b6bd 7ca9 db3b 1ae5 f9bd
000000b0: cc38 5dbd 239b d7bc 8b19 e13c 180f 1fbd
000000c0: 920b 7bbe bb53 45be 8e2f 7cbe 53bb 96bd
000000d0: 1164 c83d 2429 1a3d afdf 5d3c a3f1 1cbe
000000e0: 6bd6 32be ed18 c93d a517 4d3d 2003 44bd
000000f0: d139 373d af39 823e f004 06bd a636 c53d
00000100: d9a2 343d 6cfb b7be 1da7 70be 23dc 543d
00000110: 2b8a f53d 048a 8f3e 56bb 8abe 2ec6 2c3d
00000120: 59d1 5ebe df09 0f3e c5a0 a73e 48ac 073e
00000130: 2096 093d 4847 843e 03d3 923d f90c c93e
00000140: 03a1 44bd 9256 1a3e 3a28 523d c542 bb3d
00000150: af15 89bd d164 983e b8b3 ff3d 21b6 fc3d
00000160: 808c 573e 5313 92bd 5cab 1dbd c590 fd3c
00000170: 9c21 623e 5b88 a9bc b0bf 363e 9057 fd3c
00000180: a857 123e b168 433e c6e2 ef3d de60 7dbe
00000190: 09d5 9b3d 39a6 53bd ac2d 883c 801f 32bd
000001a0: fe75 943d 0905 443c 8a15 dabc 17f6 01be
000001b0: 1a46 353e fe78 a33d e58e 6e3e 37ab a9be
000001c0: 4132 3e3d 32f0 b23d 5658 74bd 2035 20be
000001d0: ef6f 8a3c 5f02 9bbe 1b8a 013e 4aa2 a5bd
000001e0: 6618 6a3d f488 163e a0ba 92bd 3329 1cbe
000001f0: 3292 8abe 0c2f dc3d 1a43 bf3d 7c2b 843d
00000200: 63c0 18be b3f7 03bb 9548 74be cebc 0bbe
00000210: 2760 013e 62e0 1d3e 6e0d 2ebe 76ff 753d
00000220: 73ec 38be 97e8 d23d 46e5 88be cfa2 6ebe
00000230: 1a6d 3b3e afaa d1bd 4a92 b93e dc6e 6a3e
00000240: 0c74 aebd 4b2a 59be 409e a5be 4580 c3bd
00000250: b0b9 be3d 19c3 3fbe a70f 53be cfc3 2b3e
00000260: c1d2 5abe 6623 fbbc 975a 663d dbf2 6fbd
00000270: 96d1 38bd def8 a8bd a1a7 c8be c165 bebc
00000280: 350e d0bd 95e3 ee3d 9119 973d 4780 983d
00000290: f125 c03d ab56 133e b869 313e ca06 233e
000002a0: 485b 3b3d cb6a 8fbd da81 72be af1e c43d
000002b0: 02e1 d2bc 1838 65be 8078 5fbe 4718 c83d
000002c0: ba72 95bd 1c54 94bc a653 563e 3954 863e
000002d0: 197a 3e3d f683 c13d 5c83 993d 1c3c be3d
000002e0: a30a 09bd 5486 5dbe 6a33 84bd ca04 04be
000002f0: efba f4bd dfd7 df3b 126e 98bd ec49 15be
00000300: 7e34 f43d b639 70be 2d58 87be a0ab d4bc
00000310: 13dc 333e 1e98 203e 2f00 3c3e f3c1 603d
00000320: 450b 8fbe 3860 1fbd 3cde 8bbe 1674 02be
00000330: 516a 733d 6229 023d 9e08 e9bd 3f1c c33c
00000340: 6583 1f3e e11e 7b3d 309c 8abe acfb 25bc
00000350: 9cd9 1d3e e9ad 713d eb24 043e abe0 813e
00000360: bc37 a3bd 84f8 873c ede7 87be 38af a1bd
00000370: 36bf 8c3e a46b 413e c24f 78be 66d1 9ebd
00000380: fda6 66bd 2936 643e dec2 29be b774 3f3d
00000390: e569 643e 36e3 ccbd ff94 92be 6560 273d
000003a0: 586a 6f3e be47 a7bd 3ec0 e73d 9af2 06bd
000003b0: a588 57bc 1b60 e93d 91e9 293d 1ef5 fe3d
000003c0: 05d9 94be 23be da3d 2579 273e 5dac 41be
000003d0: d273 91be 87fe 123d 6ae9 ff3d c9a3 4fbe
000003e0: 5a72 90bd f548 31be 113e 7a3e c44c d63c
000003f0: c9f4 18bd 1015 1c3e 340c 583e c675 5c3e

sequential_1/dense_3/MatMul f4 [16, 128]
0.014170216 -0.09581305 0.14610069 0.01205827 0.06172691 0.17497706 0.19822952 0.18415824
-0.065326415 -0.20328942 0.122340575 0.06105425 -0.2155157 0.035617348 -0.06592231 -0.11909279
-0.2033478 0.13861282 -0.13525434 -0.23877165 -0.13413842 -0.14231643 0.134106 0.16775085
-0.16149303 -0.010517019 0.18839684 0.044148862 -0.012618056 0.15523203 -0.11133382 0.06568761
0.14917885 0.03152202 -0.21241315 0.09524447 0.2410271 0.19778647 -0.031107765 0.22554982
-0.0004947417 0.002495115 0.046734437 -0.09991212 0.06612875 0.1500923 0.22844617 -0.16934884
0.17712082 0.08366552 0.0101718735 -0.16752508 -0.30679464 0.14613724 -0.22840554 0.17486022
-0.13377313 -0.19978343 0.17703386 -0.3277657 -0.009066679 -0.011352695 0.28874102 0.24019042
0.011451226 -0.123008475 -0.11428079 -0.11437721 -0.019462153 0.009257143 -0.12848903 -0.16744566
-0.19324608 0.021445902 -0.0022074457 0.12167126 -0.11408188 0.119672485 0.013192991 0.056361135
0.18793078 -0.08438055 -0.20298134 0.085860126 0.086483076 0.06268298 0.03834016 0.14859773
0.19976163 -0.109694116 -0.15939978 -0.072697185 -0.04468351 -0.16144761 0.2350836 -0.21844651
0.23292415 0.0797714 0.09931718 -0.16446885 -0.06794362 0.16100012 0.021898258 -0.122330256
0.24306299 -0.20788088 -0.15480494 0.2233311 -0.04519188 -0.10069599 -0.17118104 0.0106831575
-0.0359822 -0.025654837 0.074259 -0.031058142 0.06939071 -0.07130896 -0.17941172 0.22072628
-0.1095962 -0.18024711 0.07262711 -0.08080175 -0.003868142 -0.13033022 -0.12104322 -0.26836857
-0.20280024 0.031315804 0.0367597 -0.22143248 0.26276788 -0.11819958 -0.034143966 -0.17214298
0.3221077 0.23864104 0.0362361 -0.18071732 -0.2534587 -0.28946286 -0.20137216 0.12552783
0.0855351 0.08577192 -0.3676381 0.059950866 -0.18595552 -0.0035779476 0.07391568 -0.1114767
-0.21370865 -0.19507581 0.10469746 -0.026920801 0.111138 -0.172374 -0.17961904 -0.16255221
-0.01930253 -0.36724326 0.053246763 -0.24842814 0.13429925 0.049265053 -0.062009033 0.12682655
0.118844666 -0.02419246 0.15950021 -0.21035995 -0.09887198 -0.23529297 0.33654553 0.27138972
-0.17858312 -0.010155934 -0.029354334 -0.3054171 -0.26720086 -0.112360075 -0.084655166 0.31302422
0.00887633 -0.1893135 -0.2042443 0.2850726 0.29386738 0.11291638 -0.18977061 -0.090636864
-0.19677371 -0.1662971 0.01863592 0.2041554 -0.09131799 0.0061922017 0.058025897 -0.028895998
-0.07283601 -0.1665446 -0.06855125 0.05069123 -0.13401514 0.2997117 0.30041543 -0.26374155
-0.343265 -0.3726962 0.08972113 -0.02393839 -0.10568026 -0.22788437 -0.06864668 0.004106149
-0.202826 -0.24473105 0.033314567 -0.35196075 -0.1603017 0.013817891 -0.0036354305 0.1333696
0.20362872 -0.13842933 -0.1595568 0.2992403 -0.10211717 -0.21952404 0.031219607 -0.22934987
-0.21571071 -0.27952424 -0.37199458 0.15464069 -0.2460076 -0.051616363 0.106147036 0.14515378
0.26085672 0.107959576 0.0073171034 0.00031896716 0.06818957 0.13634104 -0.14636512 0.05874565
0.25405088 0.100917995 -0.15692446 -0.40460345 0.1540574 -0.2635123 -0.3116204 0.31161335
00000000: 322a 683c a239 c4bd 6b9b 153e 0d90 453c
00000010: 5bd5 7c3d 302d 333e aefc 4a3e fa93 3c3e
00000020: dbc9 85bd 1a2b 50be b28d fa3d 0514 7a3d
00000030: 26b0 5cbe 7fe3 113d 4702 87bd ece6 f3bd
00000040: 683a 50be 85f0 0d3e 1d80 0abe 8e80 74be
00000050: 955b 09be 66bb 11be 1553 093e e1c6 2b3e
00000060: 6e5e 25be 934f 2cbc 1aeb 403e 70d5 343d
00000070: f6bb 4ebc 25f5 1e3e fc02 e4bd 3a87 863d
00000080: 57c2 183e 3c1d 013d d582 59be 880f c33d
00000090: cfcf 763e 8988 4a3e b6d5 febc 88f6 663e
000000a0: 8eb1 01ba 1585 233b 9c6c 3f3d ba9e ccbd
000000b0: 836e 873d ccb1 193e cbed 693e c869 2dbe
000000c0: 295f 353e d458 ab3d eea7 263c b28b 2bbe
000000d0: 3014 9dbe 00a5 153e 24e3 69be 8f0e 333e
000000e0: d3fb 08be 0794 4cbe 5d48 353e e8d0 a7be
000000f0: 688c 14bc a700 3abc ddd5 933e 7af4 753e
00000100: ec9d 3b3c deeb fbbd 0c0c eabd 993e eabd
00000110: 186f 9fbc 46ab 173c a192 03be e076 2bbe
00000120: 4de2 45be 51af af3c cbaa 10bb c82e f93d
00000130: c3a3 e9bd d916 f53d 6a27 583c efda 663d
00000140: ed70 403e b6cf acbd 57da 4fbe 6fd7 af3d
00000150: 0a1e b13d ef5f 803d 920a 1d3d 012a 183e
00000160: 508e 4c3e 4fa7 e0bd b239 23be 43e2 94bd
00000170: 0e06 37bd 8652 25be c1b9 703e 71b0 5fbe
00000180: ab83 6e3e 305f a33d ce66 cb3d 866a 28be
00000190: 0626 8bbd 37dd 243e fa63 b33c 4988 fabd
000001a0: 81e5 783e bade 54be 3085 1ebe e8b0 643e
000001b0: 1f1b 39bd b339 cebd 154a 2fbe 6908 2f3c
000001c0: 1262 13bd 182a d2bc 1a15 983d a56d febc
000001d0: b71c 8e3d 6f0a 92bd b5b7 37be 1206 623e
000001e0: f973 e0bd b392 38be 86bd 943d 637b a5bd
000001f0: a780 7dbb 4975 05be 82e5 f7bd 9b67 89be
00000200: deaa 4fbe 0045 003d 5791 163d 32bf 62be
00000210: 8389 863e 9f12 f2bd 8bda 0bbd 4046 30be
00000220: 4deb a43e 515e 743e 4e6c 143d f60d 39be
00000230: 57c5 81be 7a34 94be 8134 4ebe 5e8a 003e
00000240: 072d af3d 30a9 af3d 103b bcbe 0a8f 753d
00000250: 206b 3ebe 007c 6abb 1b61 973d e54d e4bd
00000260: 71d6 5abe f4c1 47be 9f6b d63d 0389 dcbc
00000270: 529c e33d cf82 30be 0eee 37be 1674 26be
00000280: 5720 9ebc 4f07 bcbe 4719 5a3d f263 7ebe
00000290: be85 093e 27ca 493d 2ffd 7dbd d2de 013e
000002a0: d564 f33d 442f c6bc 0654 233e 9968 57be
000002b0: 657d cabd a4f0 70be b24f ac3e 98f3 8a3e
000002c0: 7ede 36be 1365 26bc 8078 f0bc a15f 9cbe
000002d0: 8dce 88be 0a1d e6bd b05f adbd b644 a03e
000002e0: 076e 113c 66db 41be 6b25 51be 09f5 913e
000002f0: c975 963e b440 e73d 3a53 42be d29f b9bd
00000300: 0c7f 49be c949 2abe 5baa 983c 1d0e 513e
00000310: ed04 bbbd f4e7 ca3b 90ac 6d3d 4db7 ecbc
00000320: 0c2b 95bd ab8a 2abe 9964 8cbd 9ba1 4f3d
00000330: 443b 09be d073 993e 0dd0 993e 2209 87be
00000340: 6ec0 afbe 09d2 bebe b6bf b73d 711a c4bc
00000350: e46e d8bd 855a 69be a196 8cbd e08c 863b
00000360: 9eb1 4fbe c79a 7abe db74 083d 3334 b4be
00000370: 2126 24be 6f64 623c 6740 6ebb 0a92 083e
00000380: 0c84 503e 6bc0 0dbe dc62 23be 0636 993e
00000390: cf22 d1bd e9ca 60be 43c0 ff3c b1da 6abe
000003a0: 45e3 5cbe cd1d 8fbe 1376 bebe 215a 1e3e
000003b0: 6be9 7bbe ae6b 53bd 9e63 d93d 31a3 143e
000003c0: 038f 853e e919 dd3d 50c4 ef3b 0c3b a739
000003d0: f9a6 8b3d fc9c 0b3e bde0 15be 479f 703d
000003e0: f512 823e 18ae ce3d ceb0 20be 2f28 cfbe
000003f0: 39c1 1d3e 16eb 86be b68c 9fbe c98b 9f3e

bidirectional_1/backward_lstm_2/lstm_cell_6/bias1 f4 [256]
0.02443791 -0.0005142918 0.015775066 0.09512879 0.02403161 0.013361568 0.018305704 0.018735847
0.025640775 0.018436546 0.018049665 0.047953345 0.032962635 0.024848614 0.01405886 0.009253863
0.009995501 0.047611665 0.021334663 0.01592262 0.024559421 0.0061770664 0.05386502 0.010165096
0.029521268 0.020465534 0.052295998 0.0012854801 0.016581852 0.014359715 0.060136445 0.012701063
0.021975366 0.02369423 0.3182555 0.011372669 0.01658571 0.06399735 0.041404754 0.0028631897
0.017053885 0.03993009 0.018229442 0.0036566511 0.0092220055 0.0043295543 0.0066393027 0.023969289
0.006439349 0.010887264 0.011337837 0.003947773 0.009953148 0.015557592 0.0023590906 0.02114184
0.0149816135 0.0136298975 0.008978213 0.048398808 0.02959511 0.058990028 -0.0066750613 0.011532214
1.0179774 0.9978528 1.0340521 1.0903238 1.0097766 1.0227485 1.009033 1.0130919
1.0027579 1.0236903 1.0125428 1.0461092 1.0148838 1.0190122 1.0157503 1.041806
1.0091466 1.0398773 1.023169 1.0207117 1.0256749 1.0082875 1.0507805 0.9925761
1.0058373 1.0179687 1.0276746 0.9995449 1.0010844 1.0087904 1.0632042 1.0094756
1.0201881 1.0115429 1.2255756 1.0173826 1.0142728 1.0502739 1.0425365 1.0015769
1.0161952 1.0272306 1.0205628 1.0039997 1.0098716 1.0118173 1.0131459 1.0175382
1.0028839 1.009452 1.010553 1.0238901 1.0031506 1.018968 1.0068624 1.02674
1.0048239 1.0088408 1.0180445 1.010493 1.0397547 1.0329762 0.99609166 1.0105551
-0.017192045 -6.738586e-05 -0.0017458984 0.021844307 -0.020483147 0.0032480909 0.012149861 0.021841457
-0.021834908 0.0056288936 0.0318728 -0.0052374494 0.030223304 0.013202114 0.019425884 -0.06808984
0.0072381394 0.021778801 0.074197344 0.009992107 0.0045857145 0.010057674 0.016699106 0.024884626
0.06274378 -0.010414658 -0.024470609 -0.00947794 0.016101556 -0.0022344077 -0.042140584 0.0068432754
0.041867197 0.026448837 -0.031522345 -0.07121279 -0.0044316715 -0.0196501 -0.010198825 0.021522671
0.005821946 -0.018779408 0.00185821 -0.012188566 0.023867229 -0.021027276 -0.03205676 -0.016732348
-0.021491744 -0.01278741 0.026314236 0.020044327 -0.020949604 0.03927276 -0.03140897 -0.010922175
0.016063241 0.011682292 0.033683 -0.008122909 -0.0017834534 -0.09303935 0.008260638 -0.01475588
0.023809366 -0.0045644655 0.027847111 0.017550452 0.010088268 0.024643624 0.020372506 0.017257998
0.0105708195 0.03320057 0.019794997 0.039412588 0.004213673 0.023177765 0.01530251 0.013869581
0.011103095 0.022063222 0.028745476 0.030904723 0.017786901 0.013819962 0.035447586 0.01839395
0.016747879 0.03162648 0.01899125 0.006225601 0.007928745 0.008074925 0.03132095 0.015215812
0.023961218 0.019113509 0.016231515 0.03053294 0.011748221 0.0569766 0.031279 0.005153069
0.00637695 0.025529243 0.021826835 0.01977783 0.005848559 0.018495508 0.011525821 0.025752345
0.015277666 0.013094753 0.009896978 0.014144357 0.0038109699 0.021445531 0.0070149107 0.024748316
0.009458885 0.012414031 0.014749492 -0.00097642164 0.04739307 0.021593938 -0.0063045537 0.009767897
00000000: 0332 c83c 8ad1 06ba b63a 813c e2d2 c23d
00000010: f0dd c43c 7aea 5a3c d8f5 953c eb7b 993c
00000020: 9a0c d23c 3d08 973c e4dc 933c ba6a 443d
00000030: d403 073d 528f cb3c 2257 663c 849d 173c
00000040: 2bc4 233c 7304 433d 08c6 ae3c 2870 823c
00000050: d730 c93c fd68 ca3b 91a1 5c3d 818b 263c
00000060: 96d6 f13c 56a7 a73c 5434 563d 8e7d a83a
00000070: aad6 873c 0345 6b3c a251 763d 1f18 503c
00000080: af05 b43c 671a c23c 63f2 a23e 6e54 3a3c
00000090: c1de 873c 0b11 833d 0898 293d 5aa4 3b3b
000000a0: 97b4 8b3c bc8d 233d e955 953c 6da4 6f3b
000000b0: e517 173c efde 8d3b 828e d93b 3e5b c43c
000000c0: 2d01 d33b 7f60 323c 56c2 393c 525c 813b
000000d0: 8712 233c 45e5 7e3c f99a 1a3b a731 ad3c
000000e0: 7175 753c ef4f 5f3c 5b19 133c d43d 463d
000000f0: 7271 f23c 879f 713d 79ba dabb 9cf1 3c3c
00000100: 154d 823f 4873 7f3f d25b 843f bb8f 8b3f
00000110: 5c40 813f 6ce9 823f fe27 813f ffac 813f
00000120: 5f5a 803f 4908 833f 019b 813f e8e6 853f
00000130: b6e7 813f fe6e 823f 1b04 823f e659 853f
00000140: b72b 813f b31a 853f 34f7 823f aea6 823f
00000150: 5149 833f 910f 813f fa7f 863f 7819 7e3f
00000160: 47bf 803f cc4c 823f d78a 833f 2de2 7f3f
00000170: 8923 803f 0b20 813f 1317 883f 7f36 813f
00000180: 8695 823f 3d7a 813f a9df 9c3f 9839 823f
00000190: b1d3 813f 606f 863f d671 853f ac33 803f
000001a0: af12 823f 4b7c 833f cda1 823f 1083 803f
000001b0: 7943 813f 3b83 813f c4ae 813f b13e 823f
000001c0: 805e 803f b935 813f cd59 813f d50e 833f
000001d0: 3d67 803f 8b6d 823f dee0 803f 376c 833f
000001e0: 129e 803f b221 813f 484f 823f d657 813f
000001f0: af16 853f 9038 843f ddff 7e3f df59 813f
00000200: 55d6 8cbc 8251 8db8 a1d6 e4ba d5f2 b23c
00000210: 46cc a7bc ecdd 543b 3610 473c dbec b23c
00000220: 1fdf b2bc 9572 b83b 0e8d 023d e99e abbb
00000230: dd96 f73c ae4d 583c 0823 9f3c b072 8bbd
00000240: ea2d ed3b 7569 b23c c7f4 973d efb5 233c
00000250: c343 963b f1c8 243c 90cc 883c d8da cb3c
00000260: d07f 803d 3ea2 2abc 9676 c8bc 5d49 1bbc
00000270: 69e7 833c 246f 12bb 9b9b 2cbd 8e3d e03b
00000280: f07c 2b3d 3bab d83c 931d 01bd 03d8 91bd
00000290: 8e37 91bb 3ff9 a0bc f918 27bc 5050 b03c
000002a0: 06c6 be3b 46d7 99bc 2e8f f33a 8db2 47bc
000002b0: 3585 c33c 6541 acbc f34d 03bd 4712 89bc
000002c0: 740f b0bc 4982 51bc f490 d73c 0034 a43c
000002d0: 819e abbc 79dc 203d b1a6 00bd ecf2 32bc
000002e0: 0f97 833c 1667 3f3c 2ff7 093d f315 05bc
000002f0: c4c2 e9ba 6a8b bebd a157 073c a6c2 71bc
00000300: dc0b c33c 8391 95bb a01f e43c f7c5 8f3c
00000310: 4349 253c 6de1 c93c 3ee4 a63c a560 8d3c
00000320: 3b31 2d3c 52fd 073d 1e29 a23c 186f 213d
00000330: da12 8a3b 4cdf bd3c 61b7 7a3c 3d3d 633c
00000340: c1e9 353c eebd b43c a27b eb3c e72b fd3c
00000350: d6b5 913c 1f6d 623c 7d31 113d e9ae 963c
00000360: d932 893c c58a 013d 8a93 9b3c 2000 cc3b
00000370: 91e7 013c b14c 043c 654a 003d be4b 793c
00000380: 514a c43c ef93 9c3c f4f7 843c 3720 fa3c
00000390: 9c7b 403c 4c60 693d 691e 003d 13db a83b
000003a0: bcf5 d03b b422 d13c 31ce b23c 1e05 a23c
000003b0: 45a5 bf3b e483 973c ccd6 3c3c 95f6 d23c
000003c0: 2d4f 7a3c 608b 563c ef26 223c bcbd 673c
000003d0: 77c1 793b 8aae af3c 56dd e53b fbbc ca3c
000003e0: 70f9 1a3c 3864 4b3c daa7 713c 8cf6 7fba
000003f0: 3c1f 423d c5e5 b03c 6e96 cebb 8809 203c

while/MatMul_1 f4 [256, 64]
-0.05646287 0.13421293 0.06077091 -0.022218157 -0.049986266 -0.014955441 -0.054725774 0.019471612
-0.03941042 0.022025868 -0.09928096 -0.011356308 0.015290529 -0.033758014 0.06891992 0.07072414
0.02433378 0.06183398 -0.181756 -0.06392067 0.016822724 -0.09195658 0.066557236 -0.021782778
0.054089528 0.13101536 -0.014701149 -0.05849184 -0.10355657 -0.061069183 0.015064164 0.017764242
-0.023529267 0.05085049 -0.045696583 0.06661118 -0.07629277 0.056301527 -0.17122343 -0.030136349
0.031449493 -0.0022804188 -0.05001312 0.08311938 0.0044385223 0.036890306 0.022273527 -0.0033817354
-0.0050504133 -0.06382893 0.11326434 0.048220947 0.007716358 0.020998973 0.0021538993 0.12049556
0.07568829 -0.071938 -0.03458049 0.014690577 -0.022876186 0.023768978 -0.14316119 -0.070592135
-0.09849448 0.007975881 0.051739193 -0.015950639 -0.032470413 0.018239228 0.022538114 0.031771675
0.043070093 -0.105091475 -0.059968226 0.05035319 -0.16061305 -0.029437888 0.07748729 -0.08999195
0.055027194 -0.034642667 0.048868105 -0.012981583 -0.07700716 0.01362238 -0.09001334 0.071605764
-0.023677062 -0.10239756 0.09144688 -0.022602407 0.13945012 -0.02802354 0.011509397 -0.021293098
-0.020148657 0.043674987 0.034633625 -0.04045536 0.0031745469 0.025743531 -0.1297149 0.010003981
0.02497262 0.121838845 0.022170423 0.054011565 -0.0008846826 0.0027647708 -0.14288932 -0.11554832
-0.014531801 -0.020305136 -0.09336281 0.01740419 -0.018629527 0.03923509 0.04495027 0.009125354
0.007063702 -0.07776023 0.02761508 0.020398172 -0.04936025 -0.034111105 -0.015452842 -0.001580018
-0.01255916 0.10703813 -0.009172595 -0.12745002 -0.067600854 -0.08722053 0.032947958 0.061306372
-0.01600701 -0.059799254 0.019151652 -0.04947256 -0.035675794 0.084814295 0.10664604 0.038587637
-0.11238537 -0.016079314 -0.14920144 -0.08705075 -0.06275571 -0.06572394 0.06720129 0.017384594
0.057746895 0.028865773 -0.06270773 -0.047239766 -0.0007467634 -0.03992711 -0.062031325 0.0803201
-2.4611854e-06 -0.040713277 -0.029186308 -0.09616532 -0.026841225 -0.1201804 -0.00070843205 -0.07065889
0.0044778786 -0.021073807 0.026159503 0.0062893652 0.0138356 0.08964688 0.031548444 0.004344353
-0.1280485 0.115729496 0.032367203 0.0007143115 -0.075258344 -0.079716615 0.025839616 0.021625148
0.035506163 0.12524655 -0.07523326 -0.071009584 0.06855597 0.0749108 -0.046075854 0.15105195
0.12722299 -0.09710377 0.016721029 -0.02266539 0.012686927 -0.12404463 -0.042936534 -0.026830114
-0.06491446 0.123137616 0.0067844656 -0.017316958 0.093671516 0.076895535 0.14782387 -0.04669693
0.013573868 -0.067708656 -0.11036497 -0.034833323 0.07436522 -0.07379719 0.032856356 0.06263645
0.029298194 0.099821545 0.021814387 -0.027494518 0.07753444 0.0135481935 -0.012738583 -0.0011510747
-0.118420444 0.03674462 0.052795913 0.08138801 -0.07239781 -0.037866645 0.0013602109 0.0013970006
0.08082684 0.03737061 -0.015343295 0.0081283515 -0.06217029 0.1213138 0.06180472 0.03147699
0.050671782 0.0063376785 0.019211434 -0.04729812 -0.06158592 -0.038856264 0.07189081 -0.05513745
-0.2051307 0.042617105 0.05435116 -0.00031613442 -0.115030274 -0.060050797 -0.0009834545 -0.10499322
00000000: 9c45 67bd 1d6f 093e ebea 783d da02 b6bc
00000010: 66be 4cbd aa07 75bc 2228 60bd ee82 9f3c
00000020: d26c 21bd 986f b43c d153 cbbd cf0f 3abc
00000030: 2085 7a3c d845 0abd e325 8d3d d1d7 903d
00000040: a357 c73c a145 7d3d 3f1e 3abe d7e8 82bd
00000050: cfcf 893c bb53 bcbd 294f 883d cc71 b2bc
00000060: fb8c 5d3d e428 063e 17dd 70bc 2495 6fbd
00000070: 7815 d4bd ae23 7abd afcf 763c 5186 913c
00000080: 73c0 c0bc 9a48 503d 572c 3bbd 716b 883d
00000090: 623f 9cbd 6e9c 663d 3255 2fbe 81e0 f6bc
000000a0: 2fd1 003d 1473 15bb 8fda 4cbd 7e3a aa3d
000000b0: 0671 913b 4a1a 173d f976 b63c 1ba0 5dbb
000000c0: f07d a5bb beb8 82bd 22f7 e73d 5483 453d
000000d0: 81d9 fc3b 0a06 ac3c 6f28 0d3b 60c6 f63d
000000e0: 7602 9b3d 3b54 93bd 46a4 0dbd bfb0 703c
000000f0: d766 bbbc 29b7 c23c d998 12be 9c92 90bd
00000100: 79b7 c9bd 45ad 023c 7aec 533d eaaa 82bc
00000110: b2ff 04bd 6f6a 953c daa1 b83c 0423 023d
00000120: 446a 303d 333a d7bd 3ea1 75bd 263f 4e3d
00000130: bf77 24be ba27 f1bc a8b1 9e3d b34d b8bd
00000140: 3264 613d 78e5 0dbd ec29 483d b5b0 54bc
00000150: eeb5 9dbd 6730 5f3c ea58 b8bd 0ba6 923d
00000160: 66f6 c1bc d0b5 d1bd 8048 bb3d af28 b9bc
00000170: 03cc 0e3e 9f91 e5bc e991 3c3c dd6e aebc
00000180: cc0e a5bc 8be4 323d fddb 0d3d 85b4 25bd
00000190: 0f0c 503b 19e4 d23c fcd3 04be bde7 233c
000001a0: 6193 cc3c a586 f93d bf9e b53c 3b3b 5d3d
000001b0: 0bea 67ba 2831 353b 9451 12be 99a4 ecbd
000001c0: cb16 6ebc f556 a6bc 0035 bfbd 3b93 8e3c
000001d0: f39c 98bc f9b4 203d c61d 383d 8282 153c
000001e0: a176 e73b c140 9fbd 0539 e23c 111a a73c
000001f0: f92d 4abd 16b8 0bbd eb2d 7dbc 9b18 cfba
00000200: efc4 4dbc cf36 db3d a748 16bc 4282 02be
00000210: 5172 8abd ada0 b2bd 70f4 063d 641c 7b3d
00000220: 2221 83bc 10f0 74bd ede3 9c3c bda3 4abd
00000230: c820 12bd 1eb3 ad3d 3d69 da3d 120e 1e3d
00000240: 4d2a e6bd c4b8 83bc 43c8 18be aa47 b2bd
00000250: 1186 80bd 469a 86bd d4a0 893d 236a 8e3c
00000260: 0288 6c3d ea77 ec3c e96c 80bd 7c7e 41bd
00000270: 72c2 43ba 9c8a 23bd 8f14 7ebd dd7e a43d
00000280: d82a 25b6 f7c2 26bd 2018 efbc 53f2 c4bd
00000290: 21e2 dbbc 2421 f6bd 12b6 39ba 9cb5 90bd
000002a0: 2bbb 923b faa2 acbc 744c d63c 0517 ce3b
000002b0: b6ae 623c c998 b73d f138 013d 135b 8e3b
000002c0: 251f 03be 9603 ed3d 7993 043d a240 3b3a
000002d0: 0c21 9abd 7742 a3bd 9aad d33c 3927 b13c
000002e0: e96e 113d a240 003e e513 9abd 796d 91bd
000002f0: 1367 8c3d d56a 993d 09ba 3cbd 5dad 1a3e
00000300: be46 023e 57de c6bd 8afa 883c c5ac b9bc
00000310: d4dc 4f3c 1c0b febd 38de 2fbd d4ca dbbc
00000320: dff1 84bd 932f fc3d 3950 de3b 4bdc 8dbc
00000330: dad6 bf3d 687b 9d3d 245f 173e 4845 3fbd
00000340: ee64 5e3c d6aa 8abd 0807 e2bd 63ad 0ebd
00000350: cb4c 983d fb22 97bd 6394 063d 8a47 803d
00000360: c402 f03c 3d6f cc3d 16b4 b23c 2f3c e1bc
00000370: 60ca 9e3d 3ef9 5d3c 7db5 50bc a8df 96ba
00000380: 6b86 f2bd 8781 163d 8740 583d c2ae a63d
00000390: 4e45 94bd 0e1a 1bbd 1b49 b23a 901b b73a
000003a0: 8b88 a53d ed11 193d 7262 7bbc c72c 053c
000003b0: 46a6 7ebd 5f73 f83d f226 7d3d 04ee 003d
000003c0: 378d 4f3d 4dac cf3b 4c61 9d3c acbb 41bd
000003d0: 8541 7cbd bf27 1fbd 7d3b 933d cfd7 61bd
000003e0: c80d 52be 468f 2e3d 529f 5e3d d8be a5b9
000003f0: fe94 ebbd d3f7 75bd 42e7 80ba af06 d7bd

while/MatMul f4 [256, 7]
0.13048999 -0.04728495 -0.027827138 -0.12356343 0.20760725 0.027644664 -0.09834265 0.0071507236
0.00022930188 0.09771813 -0.04608508 -0.049898256 -0.121225074 0.07469623 0.07476547 0.1547919
-0.05324045 0.103342436 0.08880879 -0.115156606 0.13953233 -0.033931423 0.05572459 -0.050323375
0.27544004 -0.010601643 0.27097496 0.101681344 0.15989816 -0.10477058 -0.07455663 -0.040127315
0.121102355 0.023452608 0.18549995 -0.021244451 -0.0266075 0.046630964 -0.11709365 0.004084565
0.05010929 0.17048371 0.09478523 -0.023657609 -0.14558586 -0.14032356 0.14193504 0.2034728
-0.023783311 0.15358046 0.11666097 -0.07680591 0.026464026 -0.04491065 0.120721035 0.11968711
0.14008765 0.030995267 -0.11716219 -0.01826079 0.04734534 0.006778457 -0.03992279 0.15898551
0.059397053 -0.066973224 -0.11306445 -0.17866728 -0.08806281 0.08145816 0.034083422 -0.07492644
-0.05883609 0.13154677 0.22684786 -0.08349186 -0.109816484 -0.008035841 -0.0029754017 -0.119833775
0.13922691 0.15837297 -0.07821363 0.099413686 -0.0097373845 -0.108053364 -0.05393236 0.107854255
0.07544802 -0.018094284 -0.03190135 0.15184478 -0.10740798 -0.12820859 0.10282698 0.1227688
0.03333793 -0.01999229 -0.05609975 -0.15082946 0.01876075 -0.07790156 0.08781228 0.06725563
-0.058498543 -0.118264146 0.15350926 -0.14932737 0.028909352 0.03260593 0.025530396 -0.14860165
-0.04956044 0.045350526 -0.1621662 0.10967109 -0.08610115 -0.011952617 -0.10555103 -0.004886459
0.087879784 0.014686961 -0.005625283 0.024592767 0.16963303 0.13578027 0.07450798 -0.095984176
-0.093303904 -0.038300958 0.06560131 0.033820115 -0.023752725 0.1422752 0.0064315344 0.020176249
-0.04827655 0.08074886 -0.12668414 0.06279147 -0.08028265 0.11359541 -0.04319317 -0.0010611427
-0.009351642 0.17896345 8.231342e-05 -0.13475478 0.16393317 0.14040267 -0.10727096 0.17790699
0.003572067 -0.093074895 -0.002383018 0.20344691 0.0567825 0.15392977 -0.109377995 0.080773845
-0.06270474 0.10935123 0.026367297 0.14630038 0.025315309 -0.09622318 -0.11766094 0.06007396
0.1566238 0.023197317 -0.14679174 0.0021467477 0.034087323 -0.06597904 -0.05033032 -0.04209825
-0.096353814 -0.015112478 -0.08898926 0.12531471 0.09586481 -0.14433801 -0.07077055 0.0754218
-0.080412984 0.10269857 0.088053934 0.14786316 0.11891657 0.06486672 -0.09790727 -0.0326617
-0.06510721 -0.03142771 0.110389344 0.03529725 0.11623943 0.09854781 -0.041646667 -0.052560367
-0.06201723 0.1574599 -0.0064230943 0.09006063 0.079674296 0.14265637 0.011401776 0.027820436
0.14202833 -0.04313658 0.18571255 -0.036310274 -0.029564222 0.1692636 0.092066325 0.14952928
0.01883668 -0.061526727 -0.009119822 0.14174664 -0.032017168 0.057751905 0.0024883617 0.11689956
-0.022002852 -0.06105041 0.026091808 0.09265938 -0.123060755 0.02853342 0.03300835 0.13954347
-0.025790337 -0.11529552 0.14748183 -0.03350036 0.061191592 0.035755884 0.40445715 0.1449883
-0.45634884 0.25997648 0.18436265 0.42888817 0.3039536 -0.094740026 0.024670674 -0.07420578
-0.10102192 -0.08377451 -0.07713855 -0.15947555 -0.069837205 -0.008623285 -0.06266857 -0.093728475
00000000: 2b9f 053e ddad 41bd bdf5 e3bc d30e fdbd
00000010: ff96 543e 1077 e23c df67 c9bd 9e50 ea3b
00000020: c170 7039 7120 c83d b5c3 3cbd 1d62 4cbd
00000030: da44 f8bd 56fa 983d a41e 993d c581 1e3e
00000040: a812 5abd 33a5 d33d 62e1 b53d 3ad7 ebbd
00000050: 90e1 0e3e adfb 0abd 783f 643d e21f 4ebd
00000060: 7a06 8d3e 83b2 2dbc 3bbd 8a3e 4f3e d03d
00000070: 58bc 233e f591 d6bd 25b1 98bd 8a5c 24bd
00000080: 8304 f83d af1f c03c b3f3 3d3e d808 aebc
00000090: f9f7 d9bc 1c00 3f3d ccce efbd d1d7 853b
000000a0: 663f 4d3d 4893 2e3e c21e c23d 9acd c1bc
000000b0: 7614 15be fbb0 0fbe 6b57 113e 2c5b 503e
000000c0: 38d5 c2bc 3244 1d3e f2eb ee3d 6b4c 9dbd
000000d0: 16cb d83c 3bf4 37bd 973c f73d 841e f53d
000000e0: 2373 0f3e c9e9 fd3c bbf2 efbd a797 95bc
000000f0: 30ed 413d d21d de3b 1486 23bd 19cd 223e
00000100: 534a 733d 4229 89bd 568e e7bd 8ef4 36be
00000110: 465a b4bd 89d3 a63d 0f9b 0b3d 0973 99bd
00000120: 1dfe 70bd 32b4 063e ce4a 683e c8fd aabd
00000130: 77e7 e0bd c3a8 03bc f5fe 42bb 696b f5bd
00000140: 8091 0e3e 862c 223e 782e a0bd 6799 cb3d
00000150: 8d89 1fbc 154b ddbd 2ee8 5cbd b1e2 dc3d
00000160: 7e84 9a3d 773a 94bc fdaa 02bd 337d 1b3e
00000170: b7f8 dbbd 1d49 03be f496 d23d 356e fb3d
00000180: 5a8d 083d dfc6 a3bc dac8 65bd 0a73 1abe
00000190: 25b0 993c da8a 9fbd edd6 b33d 52bd 893d
000001a0: 2b9c 6fbd 7934 f2bd 8831 1d3e 46e9 18be
000001b0: 4ed3 ec3c cc8d 053d 1f25 d13c 082b 18be
000001c0: e3ff 4abd 79c1 393d e50e 26be 3d9b e03d
000001d0: cd55 b0bd e9d4 43bc 232b d8bd 971e a0bb
000001e0: 51fa b33d 94a1 703c 4b54 b8bb c576 c93c
000001f0: 48b4 2d3e fc09 0b3e a497 983d 5a93 c4bd
00000200: 1e16 bfbd 77e1 1cbd fb59 863d f686 0a3d
00000210: 1395 c2bc 97b0 113e 9fbf d23b a948 a53c
00000220: a2bd 45bd a95f a53d 7db9 01be d098 803d
00000230: 3b6b a4bd b6a4 e83d 52eb 30bd 0a16 8bba
00000240: a137 19bc 3242 373e ae9f ac38 28fd 09be
00000250: 19de 273e b8c5 0f3e e1b0 dbbd 402d 363e
00000260: 5719 6a3b 0d9e bebd 682c 1cbb 6354 503e
00000270: c494 683d c49f 1d3e 9201 e0bd c26c a53d
00000280: 586b 80bd 8af3 df3d 3b00 d83c c4cf 153e
00000290: 0d62 cf3c a910 c5bd 38f8 f0bd 1d10 763d
000002a0: fd61 203e 4d08 be3c 9350 16be 73b0 0c3b
000002b0: 269f 0b3d 0520 87bd 2a27 4ebd 376f 2cbd
000002c0: 2655 c5bd 549a 77bc 0040 b6bd 8052 003e
000002d0: c554 c43d 58cd 13be 26f0 90bd bf76 9a3d
000002e0: 90af a4bd a153 d23d 9f55 b43d 7169 173e
000002f0: 888a f33d d8d8 843d 9b83 c8bd 46c8 05bd
00000300: ee56 85bd 58ba 00bd cf13 e23d d993 103d
00000310: f00e ee3d 6fd3 c93d b295 2abd 8a49 57bd
00000320: c705 7ebd 2b3d 213e d278 d2bb b571 b83d
00000330: 472c a33d 8314 123e 84ce 3a3c afe7 e33c
00000340: e06f 113e fcaf 30bd 6e2b 3e3e 15ba 14bd
00000350: ab30 f2bc 7053 2d3e 458d bc3d 341e 193e
00000360: 624f 9a3c 7303 7cbd 4e6b 15bc 0826 113e
00000370: 6f24 03bd 438d 6c3d c813 233b 0969 ef3d
00000380: 533f b4bc ff0f 7abd 7dbe d53c 33c4 bd3d
00000390: 4707 fcbd ebbe e93c c333 073d 7ce4 0e3e
000003a0: 4246 d3bc 0f20 ecbd 7a05 173e ac37 09bd
000003b0: 09a4 7a3d c374 123d 0215 cf3e d077 143e
000003c0: 8ea6 e9be a31b 853e 90c9 3c3e 3b97 db3e
000003d0: ce9f 9b3e 0f07 c2bd 271a ca3c 33f9 97bd
000003e0: 95e4 cebd f891 abbd d1fa 9dbd 8f4d 23be
000003f0: cf06 8fbd ae48 0dbc 6158 80bd b7f4 bfbd
