app/src/main/ml/model_5.tflite (tflite, 180424 bytes, 19 tensors)

lstm_model_1/input/forward_lstm_2/lstm_cell_7/bias f4 [128]
00000000: f14f c2bc 2d13 18bc 601f 2cbc e662 173d
00000010: 0894 f03c 4ed9 913c f989 c4bc b8e3 fe3b
00000020: 5801 cc38 cb00 143c 6ac4 633c 3f86 873c
00000030: 8ea9 a9bb eb9b 803d eaef 9dbc aa05 5b3c
00000040: 250b ef3c 4f9f 98bb 42d3 eb3c 16d4 e13b
00000050: a115 d63c 4468 d93a 369e e73b 767a 25bb
00000060: a98e 70bc 11d8 173d b102 92bb 1473 943c
00000070: bba3 223d 6488 da3a 6ccb 543d 16af ef3c
00000080: af19 803f 1c86 7f3f 7e46 7c3f 9cb7 823f
00000090: 6d81 843f 3a37 823f 8adf 793f 8686 833f
000000a0: f9fc 803f 8c2b 813f b2f6 813f 0165 7f3f
000000b0: eebd 7e3f 3292 803f 3f9a 813f 438a 803f
000000c0: 414b 823f 3f59 773f d0cf 803f c872 7f3f
000000d0: b681 7e3f 5b58 7f3f f152 813f cce1 7f3f
000000e0: 0b01 7e3f 9878 7f3f 2ee2 7a3f 96e3 823f
000000f0: d649 7d3f b0ae 7f3f 0fdd 743f b750 843f
00000100: c664 063d 2e73 cf3c a1aa 303d 62ce e33c
00000110: 9bce 10bb 0f46 b03c f1f2 113c 77b4 34bc
00000120: 4dfe 13bc a5cd 9bbc 9924 3a3d 0e9c 953c
00000130: a0f4 cb3b 77ea 893b 378d 09bd fe43 583d
00000140: 94c8 3ebc fe3b d83c 1e10 663c dbb8 c63c
00000150: ee77 b13b 602f 88bc 6b7a df3c f771 84bc
00000160: 27a6 c1bb 12fb 40bc f330 f0bc 97df 7e3b
00000170: 59c5 fcbb 5b9f 5c3b 668e 75bb 82ae deba
00000180: 78b7 293c 5d44 d1bb d77f 1f3b dfc7 193d
00000190: ca17 673c 6605 933c f215 fabb a4a0 fc3b
000001a0: 623e e63c fb0b 8e3c 6c9a 003d e18f 6a3c
000001b0: 56a8 0dbc 52b1 693d fc6e ef3c 0099 033d
000001c0: 1366 b43c 20a5 a1bc c77d ac3c fd0c 5f3a
000001d0: 7c94 a43c 5b21 c3bc 77ab d83c c6ff a33a
000001e0: 91b2 c6bc 4cd8 083d d16c d739 aa0a 4f3c
000001f0: c44a 633d 6ea9 e23c 8ace 743d 155e 0a3d
-0.02371976 -0.009281916 -0.010505527 0.03695955 0.029367462 0.017803814 -0.023991572 0.007778611
9.727728e-05 0.009033392 0.013901809 0.016543506 -0.005177683 0.06279739 -0.019279439 0.01336805
0.029180119 -0.004657663 0.028787259 0.0068917377 0.02613336 0.001658686 0.0070684208 -0.0025249994
-0.01468245 0.03707129 -0.0044558872 0.01812128 0.039706927 0.0016672728 0.05195181 0.029258292
1.0007838 0.9981401 0.9854506 1.0212283 1.0351998 1.0173104 0.9760672 1.0275428
1.0077201 1.0091414 1.015341 0.99763495 0.9950856 1.0044615 1.0125197 1.0042194
1.0179216 0.96620554 1.0063419 0.9978452 0.99416673 0.99744195 1.0103437 0.99953914
0.9922034 0.99793386 0.9800137 1.0225704 0.9894079 0.99875927 0.9564981 1.0337132
0.03281095 0.025323477 0.043131474 0.027808372 -0.0022095803 0.021517782 0.008908019 -0.011029354
-0.009032798 -0.019018957 0.04544506 0.01826289 0.00622423 0.0042088586 -0.03358194 0.052799217
-0.011644501 0.026395794 0.014041929 0.024258068 0.005415908 -0.016624153 0.027280053 -0.016167624
-0.0059096995 -0.01177861 -0.029320216 0.0038890594 -0.0077139554 0.003366432 -0.003746891 -0.0016989263
0.010358684 -0.0063863234 0.0024337673 0.037544128 0.014104793 0.01794691 -0.0076320106 0.0077095795
0.028105918 0.017339697 0.03139727 0.01431653 -0.008646091 0.05705387 0.029227726 0.032128334
0.022021329 -0.019732058 0.021056069 0.00085087103 0.020090334 -0.023819616 0.026448948 0.001251214
-0.024255069 0.0334094 0.0004108907 0.01263682 0.055491224 0.027668681 0.059767283 0.03378113

lstm_model_1/input/backward_lstm_2/lstm_cell_8/bias f4 [128]
00000000: 766b 8fbb c155 8bba 4cb4 b53d 66da b93c
00000010: c3b1 60bb bcb0 0f3d 4ba2 b73c a130 823d
00000020: c0d1 353c 8d36 7cbc 6a4e 6f38 12fd adbb
00000030: 38f3 123d 8245 0d3d c0c4 c7bb 778a b33c
00000040: 3693 d0ba 5c1c 1f3d 3b66 9abb 2766 953c
00000050: 63cb e43d 550a 683d 2383 3abb b942 993d
00000060: b587 66bc 5d83 c83d e599 8d3c e325 8c3c
00000070: 2ada 3b3d 48fc 243c 3b69 273d f996 883c
00000080: f5ff 7b3f 4b56 813f 5960 883f 6295 7f3f
00000090: 38ca 7c3f a1db 843f 8d52 7e3f ff58 823f
000000a0: ea2a 813f c124 7c3f 101c 803f 7710 7b3f
000000b0: 2a82 873f 7e11 833f c4fa 7f3f 2ce7 7c3f
000000c0: bd48 783f 9423 843f cc7d 7f3f 8c1e 823f
000000d0: 94c0 8f3f 4c6f 8b3f d8cd 803f 0a6e 833f
000000e0: 68bf 783f a3c4 8c3f bc3c 803f 5fbf 833f
000000f0: 372b 7d3f fcb7 843f 2262 803f 44b3 823f
00000100: ed16 d23b 370c 413d c753 8dbc 250a 3b3c
00000110: d6c5 563c e963 313d a9bb 323c 7994 293a
00000120: 35e9 d73c 5289 cebc a537 87bb 166d 53bb
00000130: 266e b7bc bd93 28bd 9842 65bd 55d5 87bc
00000140: ca08 df3c f916 3dbc 88d0 20bd 5645 0bbd
00000150: 20b1 dbbc 2d70 923b 7406 acbc aef7 d3bc
00000160: 864d 5abd 96c2 ddbc 0f7b de3b c8da e1bc
00000170: 4f16 e0bc 7d15 9c3d 8063 64bc c35f bf3c
00000180: 2f87 04bc fbfe 113d d39f 823d ddaa 243c
00000190: dd1c b9bb cd77 d53c 22c5 2b3b 09c7 ac3d
000001a0: 5ed8 8b3c 3c25 be3b b539 b53a 306a efbc
000001b0: a3cd ad3c 2873 143c b63d 5bbc 8082 363c
000001c0: 1444 a53c f5db 073d a88c 11bb f836 7d3c
000001d0: f860 c83d 1c3f 8a3d 15f9 693c 439c 983d
000001e0: c2f5 923b 55f8 d23d 12d9 fd3c 6230 9b3c
000001f0: a4ae f73c 159f 683a 7af7 c73c e1ab 813c
-0.004376824 -0.0010630415 0.088722795 0.022687148 -0.0034285642 0.035080656 0.022416255 0.063569315
0.011097372 -0.015393865 5.705507e-05 -0.0053097093 0.035876483 0.034490116 -0.0060964525 0.021916611
-0.0015913013 0.038845405 -0.004711894 0.018237187 0.111716054 0.05665048 -0.0028459511 0.074834295
-0.014070441 0.097906806 0.017285297 0.01710791 0.045862354 0.010069914 0.04087184 0.016673552
0.98437434 1.010446 1.0654403 0.99837315 0.9874606 1.0379525 0.9934471 1.018341
1.0091221 0.9849358 1.0008564 0.98072 1.0586598 1.0239713 0.9999201 0.9879024
0.9698599 1.0323358 0.99801326 1.0165572 1.1230645 1.089334 1.0062819 1.0267956
0.9716706 1.0997509 1.0018535 1.0292777 0.98894066 1.0368648 1.0029948 1.0210958
0.0064114244 0.04713079 -0.017251862 0.011415993 0.013108691 0.043308172 0.0109089995 0.00064689625
0.026356319 -0.025211964 -0.0041265064 -0.0032261065 -0.02239139 -0.04115652 -0.055971712 -0.016581217
0.02722587 -0.011541122 -0.03926137 -0.03400167 -0.026817858 0.004468939 -0.02099917 -0.025874939
-0.05329659 -0.027070325 0.006789572 -0.027570143 -0.027354388 0.07621286 -0.013939738 0.023361092
-0.008088871 0.03564356 0.0637814 0.010050503 -0.0056491927 0.026058102 0.002621003 0.084364004
0.017070945 0.0058027785 0.0013826402 -0.029225439 0.02121622 0.0090606585 -0.013381412 0.011139512
0.020174064 0.03316875 -0.0022209082 0.015455 0.0978412 0.067503184 0.014280577 0.074516796
0.004484863 0.10301272 0.030987296 0.01894397 0.030234642 0.0008873803 0.024409998 0.015829029

lstm_model_1/dense_1/bias f4 [5]
00000000: 0ac6 133d ff20 04bc 65eb 0c3c 1943 4f3a
00000010: 7ed2 8abd
0.036077537 -0.0080645075 0.008601044 0.00079064217 -0.067784294

lstm_model_1/bidirectional_1/forward_lstm_3/lstm_cell_10/bias f4 [128]
00000000: 2df5 253c cf82 d63c 6cd6 e43c b6e0 4c3d
00000010: 6348 ce3c 7ed9 703d 070b a03d ad5d 793c
00000020: 5a98 923d 4207 f43d 9788 473d 9705 a13d
00000030: 9cbf 9e3d b25e 633d d99d ce3c 7eb0 623d
00000040: eabe ce3d c141 c73c 7d9b 343d cff3 c73c
00000050: 3809 0f3d 3e23 8f3d 6563 673d 1d8c 493d
00000060: 4d03 723d 4651 1e3d 1c4f 4d3d 8cd1 173d
00000070: eacb 983d 9993 793d 6a1f 493d e874 733d
00000080: e821 803f 1ba3 823f f428 7b3f b431 813f
00000090: 523c 803f 7203 823f f188 823f d63f 7c3f
000000a0: c4d8 843f a2a1 823f 5304 803f 4845 803f
000000b0: 5857 833f 374a 7e3f 474a 7f3f 2ab0 853f
000000c0: 3f93 813f fb12 7e3f fc83 823f 63c9 7c3f
000000d0: db49 833f 66b7 803f 6a81 7b3f 2e5a 863f
000000e0: be16 833f 7cd5 813f 1305 843f 542a 813f
000000f0: ad7b 7f3f 127d 853f 392f 823f 6c03 813f
00000100: 455f 1d3c 9100 ac3c a86d 523c 7513 29bc
00000110: 7f94 7d3c a0f7 29bc f05e 223a 8af8 0fbc
00000120: 0044 a7bb bd3e 5ebc 61e4 d03b efc9 f3bc
00000130: 4550 083b 81a9 90bc 5258 e6ba 7516 7cbb
00000140: 20ce 48bc 8fa6 adbb bd41 9b3b be15 bbbb
00000150: 48d8 53bc cb54 083b b1e1 fa3b aaaf f33a
00000160: 3a97 23bc 6f9c ef3b 3729 723c a369 5c3a
00000170: 13d3 9039 a9b9 70bc a6d2 c7bb 7745 453a
00000180: 8cd8 703d 48f6 8f3d 31d1 333d 4624 9d3d
00000190: d2db 183d 2cff b13d 1349 ec3d 1d49 7e3c
000001a0: a9db 9f3d d28c 253e 71b3 863d 9b38 c73d
000001b0: d715 c03d ca0b 9e3d 1498 a83d 2ee9 6f3d
000001c0: a728 d83d f63f 003d c411 503d 8a88 2a3d
000001d0: 8d91 023c 07c6 9d3d 96f2 973d 2f64 6d3d
000001e0: ccb8 a43d 7944 633d e0d2 613d 93d4 9d3d
000001f0: 1f2e 963d 028e be3d 950b 263d 635d ac3d
0.010129255 0.026185421 0.027934276 0.05001899 0.025181001 0.058801167 0.07814603 0.015220088
0.07157965 0.11915447 0.048714247 0.07862394 0.0775139 0.05551023 0.025221752 0.055344097
0.10095008 0.024323346 0.044093598 0.02440825 0.0349209 0.06989144 0.056491274 0.049205888
0.05908518 0.038651727 0.050124273 0.037065074 0.074607685 0.060931776 0.049102224 0.059437662
1.0010347 1.0206026 0.98109365 1.0093293 1.0018408 1.0157301 1.0198041 0.98534906
1.0378652 1.0205576 1.000132 1.0021143 1.026103 0.9933199 0.99722713 1.0444386
1.0123061 0.9924771 1.0196528 0.9874479 1.0256914 1.0055969 0.98244345 1.0496271
1.0241315 1.0143275 1.0314049 1.0091043 0.9979809 1.0428793 1.0170661 1.0079169
0.009605234 0.020996364 0.012843527 -0.01031958 0.015477299 -0.01037398 0.00061939564 -0.008787284
-0.005104542 -0.013564763 0.006374881 -0.029759375 0.0020799797 -0.01765895 -0.0017573929 -0.0038465534
-0.012256175 -0.0052993963 0.004738061 -0.005709379 -0.012929983 0.0020802494 0.007656299 0.0018591781
-0.009984786 0.0073123495 0.014780334 0.0008408075 0.00027623083 -0.014692702 -0.0060981093 0.00075253047
0.058800265 0.07029396 0.043900672 0.07672934 0.037319012 0.08691248 0.11537375 0.015520361
0.07805569 0.16167 0.065771945 0.097275935 0.093791656 0.07717092 0.082321316 0.058571987
0.10554629 0.031310998 0.050798193 0.04163412 0.007969272 0.07703786 0.074193165 0.05795687
0.0804306 0.055485222 0.055132747 0.07706561 0.07333016 0.093044296 0.04053839 0.084162496

lstm_model_1/bidirectional_1/backward_lstm_3/lstm_cell_11/bias f4 [128]
00000000: ceed aa3c b460 743b 07c0 aa3b e808 a93c
00000010: 7ef9 993c e0ad 74b7 9571 3c3d 9e3a c239
00000020: c87b 103c b1e0 6b3d 6a0a 4fba 39ac 523d
00000030: 85b9 2f3c 0b7f 99bb 09a1 b13c b45e 9f3c
00000040: 3268 8b3b 576c d83c 603e 173c e469 60bb
00000050: 8ca5 343c ec02 133c 7dd3 033d 687e 6fbc
00000060: 8d7f 053d 9a10 0e3d 4ad1 0e3a c985 1e3d
00000070: 7f9a 993c b031 ca3b e297 11bc f2b6 b1b9
00000080: 1050 833f 8078 813f a1ff 7f3f 7600 833f
00000090: bc04 813f 4706 843f ef6f 843f 66f4 7f3f
000000a0: ee6f 813f 4793 873f baa7 823f 3e80 853f
000000b0: ca60 813f 010a 803f c5f5 833f b772 833f
000000c0: d008 813f 61a2 833f ebd3 803f ac62 813f
000000d0: fa05 843f 5130 823f 6ee4 863f 4bac 7f3f
000000e0: b27b 883f 36f7 873f 805e 803f 7d7d 843f
000000f0: 18b5 823f b978 803f b9b1 7a3f 663c 803f
00000100: 2db5 a13c 6eb4 8ebc 3eb5 e63b 9e5b ca3c
00000110: 370e 26bb 4c3f 1abc 40ec 583b c0a0 22bc
00000120: e945 c3b9 2561 803b d5f5 4ebc c019 a8bb
00000130: 5639 e83b 588f b0bb 7a90 41bb 9095 c13c
00000140: 0401 b83b 6e23 9cbc 8178 143c 7c65 08bb
00000150: 657a 16bc b805 8f3b cc78 6c3b e0b3 303b
00000160: 3b20 e63b 69ce b43b 47fb bebb 0ada 873c
00000170: f6d8 863c 4946 0e3b 7b1d 11bc a056 a3bc
00000180: b48d 943c c6dd 3d3b ffc3 3f3b 401b f33c
00000190: 3fc4 563c 1b58 1abb 6354 783d c92c bb3b
000001a0: 670b 023c 85cf 3e3d ba9a d83c c310 a13d
000001b0: 8dfc a33c 86cc 3dbc c9c5 f13c 4e63 d63c
000001c0: 909f a03c 9c13 bf3c 8550 d43b 5205 8bba
000001d0: 9937 f83c 6bef 893c 4a69 5b3d 8d99 81bb
000001e0: 386d 543d 7745 6e3d 93c5 873a 5e11 943c
000001f0: a210 c73c 7683 643a 71b0 13bc d08c f53b
0.020865347 0.0037289085 0.0052108797 0.02063413 0.018795725 -1.4584017e-05 0.046006758 0.00037046237
0.008818574 0.05758733 -0.0007897975 0.051433776 0.010725384 -0.004684334 0.021683233 0.019454338
0.0042543644 0.026418848 0.00923118 -0.0034242803 0.011025798 0.008972865 0.032184113 -0.01461754
0.032592345 0.0346838 0.00054480566 0.038701806 0.018750427 0.006170474 -0.008886309 -0.00033896376
1.0258808 1.0114899 0.99999434 1.0234516 1.007957 1.0314416 1.034666 0.999823
1.0112283 1.059182 1.0207436 1.0429761 1.0107663 1.0003053 1.0309378 1.0269383
1.0080814 1.0283929 1.0064672 1.0108237 1.0314324 1.0170995 1.0538461 0.99872273
1.0662749 1.0622318 1.0028839 1.0350796 1.0211515 1.0036842 0.97927433 1.0018432
0.019739712 -0.01742002 0.0070406487 0.02470189 -0.0025338063 -0.009414505 0.00330998 -0.009926021
-0.00037245385 0.0039178305 -0.012631853 -0.0051300228 0.007086913 -0.0053881817 -0.0029535578 0.023630887
0.0056153554 -0.019059863 0.0090619335 -0.0020812443 -0.009184455 0.0043646954 0.0036082743 0.0026962683
0.007022885 0.00551777 -0.0058282944 0.016583461 0.016460877 0.0021709374 -0.008857126 -0.019938767
0.018133976 0.0028971299 0.002926111 0.02967608 0.013108312 -0.002355105 0.060627352 0.005712126
0.007937289 0.046584625 0.026440967 0.07864525 0.020017887 -0.011584407 0.029513257 0.026170399
0.019607335 0.02332478 0.0064793252 -0.0010606444 0.030299949 0.016837796 0.05356721 -0.0039550723
0.05186197 0.058171716 0.0010358564 0.018074688 0.024299923 0.0008717099 -0.009014235 0.007493593

TensorArrayV2_11 f4 [32, 1, 32]
00000000: 0000 0000 0000 0000 0000 0000 0000 0000
00000010: 0000 0000 0000 0000 0000 0000 0000 0000
00000020: 0000 0000 0000 0000 0000 0000 0000 0000
00000030: 0000 0000 0000 0000 0000 0000 0000 0000
00000040: 0000 0000 0000 0000 0000 0000 0000 0000
00000050: 0000 0000 0000 0000 0000 0000 0000 0000
00000060: 0000 0000 0000 0000 0000 0000 0000 0000
00000070: 0000 0000 0000 0000 0000 0000 0000 0000
00000080: 0000 0000 0000 0000 0000 0000 0000 0000
00000090: 0000 0000 0000 0000 0000 0000 0000 0000
000000a0: 0000 0000 0000 0000 0000 0000 0000 0000
000000b0: 0000 0000 0000 0000 0000 0000 0000 0000
000000c0: 0000 0000 0000 0000 0000 0000 0000 0000
000000d0: 0000 0000 0000 0000 0000 0000 0000 0000
000000e0: 0000 0000 0000 0000 0000 0000 0000 0000
000000f0: 0000 0000 0000 0000 0000 0000 0000 0000
00000100: 0000 0000 0000 0000 0000 0000 0000 0000
00000110: 0000 0000 0000 0000 0000 0000 0000 0000
00000120: 0000 0000 0000 0000 0000 0000 0000 0000
00000130: 0000 0000 0000 0000 0000 0000 0000 0000
00000140: 0000 0000 0000 0000 0000 0000 0000 0000
00000150: 0000 0000 0000 0000 0000 0000 0000 0000
00000160: 0000 0000 0000 0000 0000 0000 0000 0000
00000170: 0000 0000 0000 0000 0000 0000 0000 0000
00000180: 0000 0000 0000 0000 0000 0000 0000 0000
00000190: 0000 0000 0000 0000 0000 0000 0000 0000
000001a0: 0000 0000 0000 0000 0000 0000 0000 0000
000001b0: 0000 0000 0000 0000 0000 0000 0000 0000
000001c0: 0000 0000 0000 0000 0000 0000 0000 0000
000001d0: 0000 0000 0000 0000 0000 0000 0000 0000
000001e0: 0000 0000 0000 0000 0000 0000 0000 0000
000001f0: 0000 0000 0000 0000 0000 0000 0000 0000
00000200: 0000 0000 0000 0000 0000 0000 0000 0000
00000210: 0000 0000 0000 0000 0000 0000 0000 0000
00000220: 0000 0000 0000 0000 0000 0000 0000 0000
00000230: 0000 0000 0000 0000 0000 0000 0000 0000
00000240: 0000 0000 0000 0000 0000 0000 0000 0000
00000250: 0000 0000 0000 0000 0000 0000 0000 0000
00000260: 0000 0000 0000 0000 0000 0000 0000 0000
00000270: 0000 0000 0000 0000 0000 0000 0000 0000
00000280: 0000 0000 0000 0000 0000 0000 0000 0000
00000290: 0000 0000 0000 0000 0000 0000 0000 0000
000002a0: 0000 0000 0000 0000 0000 0000 0000 0000
000002b0: 0000 0000 0000 0000 0000 0000 0000 0000
000002c0: 0000 0000 0000 0000 0000 0000 0000 0000
000002d0: 0000 0000 0000 0000 0000 0000 0000 0000
000002e0: 0000 0000 0000 0000 0000 0000 0000 0000
000002f0: 0000 0000 0000 0000 0000 0000 0000 0000
00000300: 0000 0000 0000 0000 0000 0000 0000 0000
00000310: 0000 0000 0000 0000 0000 0000 0000 0000
00000320: 0000 0000 0000 0000 0000 0000 0000 0000
00000330: 0000 0000 0000 0000 0000 0000 0000 0000
00000340: 0000 0000 0000 0000 0000 0000 0000 0000
00000350: 0000 0000 0000 0000 0000 0000 0000 0000
00000360: 0000 0000 0000 0000 0000 0000 0000 0000
00000370: 0000 0000 0000 0000 0000 0000 0000 0000
00000380: 0000 0000 0000 0000 0000 0000 0000 0000
00000390: 0000 0000 0000 0000 0000 0000 0000 0000
000003a0: 0000 0000 0000 0000 0000 0000 0000 0000
000003b0: 0000 0000 0000 0000 0000 0000 0000 0000
000003c0: 0000 0000 0000 0000 0000 0000 0000 0000
000003d0: 0000 0000 0000 0000 0000 0000 0000 0000
000003e0: 0000 0000 0000 0000 0000 0000 0000 0000
000003f0: 0000 0000 0000 0000 0000 0000 0000 0000
0.0 0.0 0.0 0.0 0.0 0.0 0.0 0.0
0.0 0.0 0.0 0.0 0.0 0.0 0.0 0.0
0.0 0.0 0.0 0.0 0.0 0.0 0.0 0.0
0.0 0.0 0.0 0.0 0.0 0.0 0.0 0.0
0.0 0.0 0.0 0.0 0.0 0.0 0.0 0.0
0.0 0.0 0.0 0.0 0.0 0.0 0.0 0.0
0.0 0.0 0.0 0.0 0.0 0.0 0.0 0.0
0.0 0.0 0.0 0.0 0.0 0.0 0.0 0.0
0.0 0.0 0.0 0.0 0.0 0.0 0.0 0.0
0.0 0.0 0.0 0.0 0.0 0.0 0.0 0.0
0.0 0.0 0.0 0.0 0.0 0.0 0.0 0.0
0.0 0.0 0.0 0.0 0.0 0.0 0.0 0.0
0.0 0.0 0.0 0.0 0.0 0.0 0.0 0.0
0.0 0.0 0.0 0.0 0.0 0.0 0.0 0.0
0.0 0.0 0.0 0.0 0.0 0.0 0.0 0.0
0.0 0.0 0.0 0.0 0.0 0.0 0.0 0.0
0.0 0.0 0.0 0.0 0.0 0.0 0.0 0.0
0.0 0.0 0.0 0.0 0.0 0.0 0.0 0.0
0.0 0.0 0.0 0.0 0.0 0.0 0.0 0.0
0.0 0.0 0.0 0.0 0.0 0.0 0.0 0.0
0.0 0.0 0.0 0.0 0.0 0.0 0.0 0.0
0.0 0.0 0.0 0.0 0.0 0.0 0.0 0.0
0.0 0.0 0.0 0.0 0.0 0.0 0.0 0.0
0.0 0.0 0.0 0.0 0.0 0.0 0.0 0.0
0.0 0.0 0.0 0.0 0.0 0.0 0.0 0.0
0.0 0.0 0.0 0.0 0.0 0.0 0.0 0.0
0.0 0.0 0.0 0.0 0.0 0.0 0.0 0.0
0.0 0.0 0.0 0.0 0.0 0.0 0.0 0.0
0.0 0.0 0.0 0.0 0.0 0.0 0.0 0.0
0.0 0.0 0.0 0.0 0.0 0.0 0.0 0.0
0.0 0.0 0.0 0.0 0.0 0.0 0.0 0.0
0.0 0.0 0.0 0.0 0.0 0.0 0.0 0.0

lstm_model_1/dense_1/MatMul f4 [5, 64]
00000000: 4676 9abe bc24 f13d eb87 9a3e 05cf 52bd
00000010: 4f7c 75be 64fa 95be 45db 853e 0a6b 253e
00000020: 19f2 fa3d 7d20 8cbd e60f 873e 8291 45be
00000030: 70d8 adbd 1d53 873e a466 dcbd 62a0 10bd
00000040: 6274 973e 79f0 0f3e 9c93 3b3e be53 07bd
00000050: 4d52 f43d 82cc 1c3e 8d51 813e f96a 723e
00000060: a1d9 923e 30fb 553e d6b7 2ebd 1d64 98be
00000070: ca57 323e 64a1 92be 1074 153e 7f91 903e
00000080: 3e21 16be 9804 19bc 11e0 833d b413 f43d
00000090: 59e6 4abe 7f40 60bd d343 e33d a1f7 a4be
000000a0: 0645 42bd 3710 023d 680a 43be c1fa d93d
000000b0: 6247 e33d 0b18 eebd 3900 45be e57f 47bc
000000c0: 9b4c 7bbd 498b 313b 2b71 9fbd a86c 69bc
000000d0: ba64 80bd bd48 18bd 8591 863e 13ff 993e
000000e0: e4eb 7ebc 29a5 da3d cb33 5cbc c7ae 53be
000000f0: c5b4 41be 1917 ff3d a1f9 013e c08f a1bb
00000100: 4148 f4bd 1239 8bbe a793 b63e 9bc0 3a3e
00000110: 3ace a5bd 8c83 d63e 8bb2 c2be 91fe d5bb
00000120: 9b94 82be 3b90 73be f4ae 803e 6965 97be
00000130: 2a73 36bc 66c2 bc3e 285b cfbc 2803 d3bd
00000140: 059a aa3a 1805 073e 2e67 b73e 7bb5 90bc
00000150: 92e8 e33c 29ee b4be 61f2 a13e 2174 d9bd
00000160: 1f08 96bd 7834 a6be a594 97be de7c 02bd
00000170: 73ff c23e 6966 ff3e 0a0d f43c 9363 a4be
00000180: 0205 0ebe 1016 8dbe 2721 64be 605e fc3d
00000190: 1729 663e af23 fabd 64ee 823e 3f44 ccbd
000001a0: 26cd 55be c3bb 7a3d 5b66 6bbc 0bb0 67be
000001b0: 6c3f 48be b045 89be 1a3e 823e b7af 88bd
000001c0: ceb1 f93c 551e cbbc f80a 46bd 4f65 1bbd
000001d0: eff1 5d3e 58ca bc3d 9ca8 4abd 1ad9 3fbe
000001e0: 080f 02be 190f 7b3e 05f3 35be d437 5cbe
000001f0: 1124 293e 72d4 873e 3be2 083d 5080 44be
00000200: ca28 8bbe bd30 813e 2063 91be 090c 913b
00000210: 323d 503e 003e 593e d332 18be 09dc 88be
00000220: 7468 01be 646b c63e 44de 993e 8487 333e
00000230: 9a05 a63e 907f 433e 9f25 4a3d d485 6bbe
00000240: 5bcb bc3e af23 71be f3fe 4bbd cd15 a93b
00000250: 67cc 8e3e 52e3 513e db3d 7bbe 0306 283e
00000260: ee02 b53e 52e6 74be 5d52 3d3e 05d7 873e
00000270: 8a82 b1be fdc9 68be cc6c 3a3e 52a4 d03e
00000280: 55db 70be 0189 ce3d 8d95 5c3c 2053 df3d
00000290: e237 a13c 6610 8f3d b460 1ebe bbd0 903e
000002a0: de4f b53d 29f6 1e3e 7cdd 103e e5de a83e
000002b0: d705 38be aa5a a1bd 4e89 393e 2eba b43d
000002c0: 00e4 2dbe 9a22 61be 2a38 cc3d 8d11 f9bd
000002d0: daf8 c33c 0434 643e d5bc e63d acc5 bfbd
000002e0: 5db1 913e 06e4 0f3e 1e9e 90be ddc7 823d
000002f0: eab1 333c bb42 a03e c3d4 1dbe ee1e 6b3d
00000300: 8a6c 2c3e 966d b53e d43f 0f3e 88f2 a5be
00000310: e316 acbe 75ea c0be 700a 253e 6ff6 9cbe
00000320: 0867 aa3e 5a0c 33be abc6 1abe a62f 8bbe
00000330: c78e a8be 3ffc 2dbe 3f7e 873e 21e0 8b3d
00000340: b16d 6fbe 2152 82be c350 29be 5300 c93e
00000350: 8227 a4be 10f2 8ebe 66cc 52bd 1d53 f6bd
00000360: 37a2 94be 4c96 ab3e 53e4 30be 8e76 3dbe
00000370: 522e e73c 7a7a 27be a376 0c3e 6a01 a03d
00000380: 47f1 bf3d 8ccf 86be 6cb0 6cbd 0bc4 c5bd
00000390: b5fe 923c e8fc 933e 11ec 253e 1b67 103e
000003a0: b3ec 853e 7cd3 2bbc aa8a 513e 1535 2fbe
000003b0: 2d7b 873e 692f 2a3e c338 703e ee97 9e3d
000003c0: 3ac5 d73d f25e f93c d71a 453e 7fe7 1abe
000003d0: 3bbe 13be 19dc 853e 9fa4 2b3e 2ab1 e93c
000003e0: 493e 423e 7169 6cbe 4e0a de3c a7e3 843b
000003f0: a8bd 743d 4e0b 773e d6a1 1c3e 9c80 c23b
-0.3016836 0.11774585 0.30181822 -0.05146696 -0.23973201 -0.29292595 0.26143852 0.16154113
0.12253208 -0.06842134 0.26379317 -0.19293788 -0.08488548 0.26430598 -0.10761765 -0.035309203
0.2958098 0.14056577 0.18318027 -0.033038847 0.1192976 0.15312389 0.2525753 0.2367362
0.28681663 0.20896602 -0.04265579 -0.2976388 0.17416301 -0.28638756 0.14595056 0.28236005
-0.14661118 -0.009339474 0.06439222 0.119178206 -0.19814433 -0.05474901 0.11096921 -0.32220176
-0.047429107 0.031753745 -0.19046938 0.10643531 0.110975996 -0.116256796 -0.19238366 -0.0121764885
-0.061352354 0.0027091077 -0.07785257 -0.014247097 -0.06269212 -0.037178744 0.26282898 0.3007742
-0.01555917 0.10676033 -0.013440083 -0.20672141 -0.18916614 0.124555774 0.12692882 -0.0049304664
-0.11927844 -0.2719198 0.35659525 0.18237536 -0.08095975 0.41897237 -0.38026842 -0.006530591
-0.25504002 -0.23785488 0.2513348 -0.29569557 -0.011135856 0.36867064 -0.025312021 -0.103033364
0.0013015872 0.13185537 0.35820907 -0.017664662 0.02782086 -0.35337952 0.31630233 -0.10617853
-0.07325768 -0.32461905 -0.29605594 -0.031857364 0.38085517 0.4988282 0.029791374 -0.3210722
-0.13869098 -0.27555895 -0.22278272 0.12322688 0.22476612 -0.12213837 0.25572503 -0.099739544
-0.20879039 0.06121422 -0.014367665 -0.22625749 -0.19555444 -0.2681098 0.25438005 -0.0667414
0.030480292 -0.024794737 -0.048350304 -0.037938412 0.21674322 0.092182815 -0.049477205 -0.18735161
-0.12701046 0.24517478 -0.17768486 -0.21505672 0.16517664 0.2652927 0.033418875 -0.19189572
-0.27179557 0.25232497 -0.2839594 0.0044264835 0.20335844 0.21215057 -0.14863138 -0.26730374
-0.12637502 0.38753808 0.30052388 0.17532164 0.3242615 0.1909163 0.049352285 -0.2300027
0.36873898 -0.23548768 -0.049803685 0.0051600696 0.27890322 0.20496872 -0.24535315 0.16408543
0.35353798 -0.23915985 0.1848845 0.26531234 -0.34669906 -0.22733302 0.18205565 0.40750366
-0.23521169 0.10084725 0.01346339 0.10904527 0.019679967 0.0698555 -0.15466577 0.2828425
0.08853124 0.1552359 0.1414699 0.32982555 -0.17970978 -0.07878621 0.18118784 0.088245735
-0.16981506 -0.21985856 0.0997165 -0.12161551 0.023922373 0.22285467 0.112664856 -0.09363875
0.2845563 0.14051828 -0.28245634 0.06385777 0.010967711 0.3130091 -0.15413193 0.057402544
0.1683828 0.3543517 0.13989192 -0.324116 -0.3361121 -0.37678877 0.16117263 -0.30656764
0.33281732 -0.1748518 -0.15114848 -0.2718479 -0.3292143 -0.16990755 0.26463506 0.068298586
-0.23381688 -0.25453284 -0.16534714 0.3925806 -0.32061392 -0.27919054 -0.05146446 -0.12027571
-0.2903001 0.33513105 -0.17274599 -0.18502256 0.02822033 -0.16355315 0.13717131 0.0781277
0.09372192 -0.2633022 -0.057785437 -0.09656533 0.01794372 0.2890389 0.16203333 0.14101832
0.2615715 -0.0104874335 0.20463052 -0.17110093 0.26461163 0.16619648 0.23459153 0.07743822
0.10535665 0.030440781 0.1924852 -0.15127371 -0.14428036 0.26144484 0.16762017 0.028526861
0.18969072 -0.23087098 0.027104523 0.0040554586 0.059751183 0.24125406 0.1529611 0.0059357416

lstm_model_1/input/backward_lstm_2/lstm_cell_8/bias1 f4 [128]
00000000: 766b 8fbb c155 8bba 4cb4 b53d 66da b93c
00000010: c3b1 60bb bcb0 0f3d 4ba2 b73c a130 823d
00000020: c0d1 353c 8d36 7cbc 6a4e 6f38 12fd adbb
00000030: 38f3 123d 8245 0d3d c0c4 c7bb 778a b33c
00000040: 3693 d0ba 5c1c 1f3d 3b66 9abb 2766 953c
00000050: 63cb e43d 550a 683d 2383 3abb b942 993d
00000060: b587 66bc 5d83 c83d e599 8d3c e325 8c3c
00000070: 2ada 3b3d 48fc 243c 3b69 273d f996 883c
00000080: f5ff 7b3f 4b56 813f 5960 883f 6295 7f3f
00000090: 38ca 7c3f a1db 843f 8d52 7e3f ff58 823f
000000a0: ea2a 813f c124 7c3f 101c 803f 7710 7b3f
000000b0: 2a82 873f 7e11 833f c4fa 7f3f 2ce7 7c3f
000000c0: bd48 783f 9423 843f cc7d 7f3f 8c1e 823f
000000d0: 94c0 8f3f 4c6f 8b3f d8cd 803f 0a6e 833f
000000e0: 68bf 783f a3c4 8c3f bc3c 803f 5fbf 833f
000000f0: 372b 7d3f fcb7 843f 2262 803f 44b3 823f
00000100: ed16 d23b 370c 413d c753 8dbc 250a 3b3c
00000110: d6c5 563c e963 313d a9bb 323c 7994 293a
00000120: 35e9 d73c 5289 cebc a537 87bb 166d 53bb
00000130: 266e b7bc bd93 28bd 9842 65bd 55d5 87bc
00000140: ca08 df3c f916 3dbc 88d0 20bd 5645 0bbd
00000150: 20b1 dbbc 2d70 923b 7406 acbc aef7 d3bc
00000160: 864d 5abd 96c2 ddbc 0f7b de3b c8da e1bc
00000170: 4f16 e0bc 7d15 9c3d 8063 64bc c35f bf3c
00000180: 2f87 04bc fbfe 113d d39f 823d ddaa 243c
00000190: dd1c b9bb cd77 d53c 22c5 2b3b 09c7 ac3d
000001a0: 5ed8 8b3c 3c25 be3b b539 b53a 306a efbc
000001b0: a3cd ad3c 2873 143c b63d 5bbc 8082 363c
000001c0: 1444 a53c f5db 073d a88c 11bb f836 7d3c
000001d0: f860 c83d 1c3f 8a3d 15f9 693c 439c 983d
000001e0: c2f5 923b 55f8 d23d 12d9 fd3c 6230 9b3c
000001f0: a4ae f73c 159f 683a 7af7 c73c e1ab 813c
-0.004376824 -0.0010630415 0.088722795 0.022687148 -0.0034285642 0.035080656 0.022416255 0.063569315
0.011097372 -0.015393865 5.705507e-05 -0.0053097093 0.035876483 0.034490116 -0.0060964525 0.021916611
-0.0015913013 0.038845405 -0.004711894 0.018237187 0.111716054 0.05665048 -0.0028459511 0.074834295
-0.014070441 0.097906806 0.017285297 0.01710791 0.045862354 0.010069914 0.04087184 0.016673552
0.98437434 1.010446 1.0654403 0.99837315 0.9874606 1.0379525 0.9934471 1.018341
1.0091221 0.9849358 1.0008564 0.98072 1.0586598 1.0239713 0.9999201 0.9879024
0.9698599 1.0323358 0.99801326 1.0165572 1.1230645 1.089334 1.0062819 1.0267956
0.9716706 1.0997509 1.0018535 1.0292777 0.98894066 1.0368648 1.0029948 1.0210958
0.0064114244 0.04713079 -0.017251862 0.011415993 0.013108691 0.043308172 0.0109089995 0.00064689625
0.026356319 -0.025211964 -0.0041265064 -0.0032261065 -0.02239139 -0.04115652 -0.055971712 -0.016581217
0.02722587 -0.011541122 -0.03926137 -0.03400167 -0.026817858 0.004468939 -0.02099917 -0.025874939
-0.05329659 -0.027070325 0.006789572 -0.027570143 -0.027354388 0.07621286 -0.013939738 0.023361092
-0.008088871 0.03564356 0.0637814 0.010050503 -0.0056491927 0.026058102 0.002621003 0.084364004
0.017070945 0.0058027785 0.0013826402 -0.029225439 0.02121622 0.0090606585 -0.013381412 0.011139512
0.020174064 0.03316875 -0.0022209082 0.015455 0.0978412 0.067503184 0.014280577 0.074516796
0.004484863 0.10301272 0.030987296 0.01894397 0.030234642 0.0008873803 0.024409998 0.015829029

while/MatMul_1 f4 [128, 32]
00000000: 7062 393d e5ac 14bd 2595 7a3e 9901 d13d
00000010: 4665 bf3d f4e4 b2bd ffc0 17be af3e f3bd
00000020: eba7 a7bd b6b6 04bd 2eff 19bd d444 893d
00000030: d7f5 f53c 5164 98bd b99c f33d 6fb7 e43d
00000040: 5e04 dcbc 40bc 92bd fbcc 3c3d 6cc3 d53d
00000050: 4b72 83bd 4ed9 c53c 0737 b3bd 6718 853d
00000060: 7623 1cbe 0514 b53d 3684 7fbd 71ef 543b
00000070: c393 3c3d cfa5 b73c e2f9 44bd 94eb fcbc
00000080: 763b c8bc 9827 89bd 3fbb f23c bde5 0e3e
00000090: 5b1e 853d 450c a0bd bb44 483d 2fe9 d8bb
000000a0: 8cf8 3d3c 186b 9dbd f3e2 31be 1f49 59bd
000000b0: 8046 a0bd 43ce e3bc a89c 913d 5bf4 b03d
000000c0: a39b 493d 3402 aebc 9dfb a2bd 012b 2e3e
000000d0: 1f8f 203d 9543 9e3d d492 103e e23d e43d
000000e0: 3a75 e13d 724f 42be 2651 5dbb 7e9b babd
000000f0: f07d 613d 52b9 88bd 1513 9a3c 2fd8 f13c
00000100: 9c2d 3abc 9b36 e5bc 257f 273d 4965 30be
00000110: c427 003e adf6 353d b5a4 3a3c b912 eebd
00000120: b97f 36be 344a cebd 96e2 31bc 2558 3cbe
00000130: b42b 1e3d ce6c cb3d 6612 49bd da3e be3d
00000140: 9322 65be 2017 d63c 49ad 793d e870 01be
00000150: d15c f6bd 0dd2 32bd 6d08 993c 02d7 2bbe
00000160: faca d1bc 8d24 0dbe e6bf b43d 2f52 003d
00000170: 6c19 eebd c346 34be b43c 8b3d 5134 01bd
00000180: 7af7 a63c 28eb 4f3d 73b5 af3d 5a7c 58bd
00000190: e242 743d c5dd 963d 668a 3abd 81a2 12be
000001a0: 076b ebbb e7c2 a63d 7262 a73b 8788 0c3e
000001b0: 8af0 f23c ebaf a2bd 424d 98bd fa9a cdbd
000001c0: c6c4 ca3d 67c6 bcbd 90ef 693d dd66 05bd
000001d0: fd9a a7bd 6878 c4bd 40e2 1b3e 8dbd 9e3d
000001e0: 8f91 1dbd e129 4abd d10d 95bd 125f 473e
000001f0: 7fce 5b3e 2ace 00be d7db 19be df16 2a3d
00000200: 2210 83bd 5d00 ebbb 0a02 6cbd 1713 09be
00000210: af46 afbd 5f3a 14bc 10af 993d fd67 1abd
00000220: f2ef 953d 5d36 533d d44a 113d ffac d5bd
00000230: b7c6 3fbb f7c2 7d3d 985a c6bd d507 72bc
00000240: 2530 2dbc 1bb3 b8bc 6c7e d53c 6947 ed3c
00000250: c87b 1c3e 1542 2ebc 1441 813d e21c 03be
00000260: e241 5ebd 2cf2 5e3c 87a2 3ebc 9b37 953d
00000270: ec4f 0bbd 4958 aa3d ed9b 8f3e b84d 10be
00000280: 091d 8dbd f7ca acbc 374c 903d e161 813d
00000290: 72d0 6d3d 7606 53bd 3f74 07be 09b1 6cbd
000002a0: 62e9 4dbd 99d5 573e d40d af3c ca58 41be
000002b0: bba9 9bbd 3978 75bd dc9b 403d 4fa2 44be
000002c0: 076f 0abd 0813 8a3c 6f63 5a3d df7d c4bd
000002d0: bcf7 c7bd 3f60 0d3e 7762 70bd 5577 793d
000002e0: f431 4d3d 46ec 89bc 96e3 a5bd dd4c 073e
000002f0: 7994 073e fdf1 a5bd dbc5 ab3c bfa3 1b3d
00000300: dd7f 6f3e 24e7 dcbd 88fc 423e c8f8 51bd
00000310: 9956 43bb c52a 353e c53b 233d bc60 3bbd
00000320: 09e1 59be 4477 123d b928 19bd 44f6 a23c
00000330: 2120 cb3d 98e1 30bd 8e66 103e 9266 453e
00000340: 3403 963c 0e69 a43d 152c 2e3d ce68 5dbd
00000350: 7c2d 193e 6c67 cb3d 86fc 503d f979 c3bc
00000360: fd77 fb3d cd03 55bd f025 d63b f4c6 563e
00000370: 2c44 053d d6ef 833d 21d9 f03b 1e19 9c3d
00000380: f204 a93c 4930 ddbd 535a 413d c7cc 50bd
00000390: 1030 9c3d e1b0 a73d f2b9 59bd d5fb d03d
000003a0: 75b2 d83d 9ac6 963d c962 fb3c 1898 20be
000003b0: 18f0 baba f8c6 02bd de39 903d e834 d33d
000003c0: d43f 943d a3cd 863d b529 f13d 63e9 d4bd
000003d0: ade3 3abe 3d2c 81bd fbca 243e c1c1 023e
000003e0: 9423 e83d 9716 50bd c09d acbd 3d81 653e
000003f0: a8b2 1dbd 6c2d fc3d 2a6a 2dbe bfa6 4b3e
0.045259893 -0.036297698 0.24470957 0.10205383 0.09345488 -0.087350756 -0.14819716 -0.1187719
-0.08186325 -0.03240081 -0.037596874 0.06702581 0.030024452 -0.07441009 0.11895127 0.111678
-0.026857551 -0.07164812 0.046093922 0.104376644 -0.06418284 0.02415147 -0.0875073 0.06498795
-0.15247902 0.08841709 -0.062381946 0.003249135 0.046039354 0.02241793 -0.04808987 -0.030874051
-0.024442416 -0.06697005 0.029630302 0.13954826 0.064999305 -0.0781484 0.04889367 -0.0066195945
0.011594903 -0.07686442 -0.1737173 -0.05304825 -0.07825947 -0.027808314 0.07109958 0.08640357
0.049220692 -0.021241285 -0.07958148 0.17008592 0.03919899 0.07727734 0.1411851 0.11144616
0.11008687 -0.18975618 -0.0033770292 -0.09111689 0.055051744 -0.06675972 0.018807927 0.02952203
-0.011363413 -0.02798014 0.04089274 -0.17226137 0.1251517 0.0444247 0.011391808 -0.11624665
-0.1782216 -0.10072747 -0.010857245 -0.18393 0.038615897 0.09932862 -0.04908981 0.09289332
-0.2237647 0.026134074 0.060956273 -0.12640727 -0.12029422 -0.04365735 0.018680776 -0.16781238
-0.025609482 -0.13783474 0.08825664 0.031328376 -0.116259426 -0.17605118 0.067986876 -0.031544033
0.020381678 0.05076137 0.085795306 -0.052852966 0.059634097 0.07366518 -0.045542143 -0.14319803
-0.0071843895 0.081426434 0.005108171 0.13723956 0.029655714 -0.0794371 -0.07436611 -0.10039325
0.09900813 -0.0921753 0.05711323 -0.0325688 -0.081838585 -0.09593278 0.15223026 0.07750998
-0.038468894 -0.049356345 -0.07278026 0.1946986 0.21465491 -0.12578645 -0.15025268 0.041525718
-0.063995615 -0.007171674 -0.057619132 -0.13386188 -0.08558404 -0.00904712 0.07504094 -0.037696827
0.073211566 0.051565517 0.035471752 -0.10433387 -0.002926273 0.06195351 -0.09685248 -0.014772375
-0.010570561 -0.022546342 0.02606126 0.028964715 0.15281594 -0.010635872 0.06311241 -0.12803987
-0.05426205 0.013607543 -0.011635429 0.072859965 -0.034011766 0.0831762 0.2804865 -0.14092147
-0.06890304 -0.021092875 0.07045787 0.06317497 0.058060117 -0.051519834 -0.13227938 -0.05778602
-0.0502714 0.21077575 0.021368898 -0.18881527 -0.07600733 -0.059929106 0.04702364 -0.19202541
-0.03379729 0.016854778 0.053317484 -0.095943205 -0.097640485 0.13806246 -0.058687653 0.06090482
0.050096467 -0.016836297 -0.08100049 0.13212915 0.13240232 -0.08102796 0.020968368 0.037997957
0.2338862 -0.10786274 0.19041646 -0.051262647 -0.0029806255 0.17692097 0.039851923 -0.04574655
-0.2127725 0.03575827 -0.03739235 0.01989282 0.099182375 -0.043183893 0.14101622 0.19277409
0.018312074 0.0802785 0.04252251 -0.054055028 0.14958757 0.099318355 0.051022075 -0.023861872
0.12278745 -0.052005578 0.006535284 0.20974332 0.032535717 0.064422294 0.0073501025 0.07621978
0.02063224 -0.10800225 0.04720528 -0.05097654 0.07626355 0.08188034 -0.053155847 0.10204283
0.10580913 0.07362099 0.030686753 -0.15683019 -0.0014262227 -0.031928033 0.07042287 0.103128254
0.07238737 0.06582191 0.11775533 -0.103960775 -0.18250914 -0.06307266 0.16093056 0.12769224
0.11334911 -0.050802793 -0.08428526 0.22412582 -0.038500458 0.12313351 -0.1693503 0.19887827

while/MatMul f4 [128, 7]
00000000: 6ba1 58be d905 ba3d bdac cfbc 78f2 783d
00000010: 54f5 c63d da5d 43be 0763 42be 3068 673e
00000020: 9df3 f83d e8ec 343e dfd3 7f3d 91ca c5bc
00000030: f17d 0bbd acfb d03c 8faa 913d e995 83bd
00000040: 9ea9 523e cb33 ef3b 9f73 a03e cf7b ddbd
00000050: 6e30 e6bd e278 1ebe b434 113e f078 033e
00000060: 29b8 133d 4fc6 cabd 2167 febd ddf5 13be
00000070: b51f 36bc 1561 c03d defe 173e d483 0ebe
00000080: f348 283e ab16 763e b492 20be 610b 37be
00000090: 2218 25be 3a87 523e 053d 86bd d80b ad3c
000000a0: 944a 0b3e a40f 073e 644d ac3e 79ca 483e
000000b0: 5cde 13be 73e5 a73e 155a ffbd 31d6 8ebd
000000c0: ba82 5c3e fcb4 e3bc 2b17 683e 5fae a63c
000000d0: b9a0 c23d c947 31be 29bd b2bd b6ad 803e
000000e0: 3478 8a3d 1aeb 7fbd d22e 03bd d0dd 28be
000000f0: d355 b3bd f391 4d3e f798 40be 2bb0 63bd
00000100: ad89 c33d cf36 0abe 0e14 fabd f762 ae3d
00000110: cb5b 03bd 172f 063e 9e0a 4a3d 700d 4abe
00000120: c3bc 953d 2cf6 3a3e 604d d8bd 7aab f3bd
00000130: 083a 113e abd5 923e 1a8f 6ebd 5bd8 2fbd
00000140: f4c9 f4bd 2f6e c93d c875 bdbd 36a9 0abe
00000150: 3393 993e 08a9 903d af38 6e3e 0357 573e
00000160: 5d2e fbbd 1fb9 de3d fb74 183e 364b 9cbe
00000170: f586 423e 1290 053e 94b7 f9bb 5103 5d3e
00000180: 6e3c 37be 9192 15be 789d 41be c15d cb3d
00000190: 089a 29be 659d 2d3e 99a2 dc3c 8531 90bd
000001a0: b7c2 32be 5046 91bd 6c6e 34be 9d54 95bc
000001b0: b06c bbbc 675f 25be b878 133e 3dd4 e2bd
000001c0: 611f 963e a4a4 02be 0eeb 113e 48f1 0abe
000001d0: 0603 cf3d 8bb4 75bd e93b 4b3e cf85 0b3e
000001e0: 5c12 14be 6429 733e 1a70 dcbe 696f 993e
000001f0: cd97 c93c 8e90 17be c05e da3d 4910 d4bd
00000200: a460 503e 3ea6 92bd de83 d23b 1c0f 7dbd
00000210: b2b8 3ebe d668 523e dfbb 04bd 7df5 453e
00000220: 8ce3 1b3e f283 2c3d d687 78bb 0237 c7bd
00000230: a849 7e3d b985 6d3e 5ce1 e8bc be3a 8dbb
00000240: 6ca9 1a3e d2f9 0d3e 0324 273e 63d7 013d
00000250: 294b 7d3c 4859 eeb9 3c44 2bbd 5b99 133e
00000260: fce4 87bd 2fd2 b5bd 3692 47be 0088 29bd
00000270: dcc4 433d 9713 34bd f0db dfbd 710c 593e
00000280: d790 44be dc6f 74be 55f7 2b3d cb56 02be
00000290: 3584 67be 78c7 06be 3cf9 9f3d 01da a6bd
000002a0: bb1c 043d 2223 a7bd 330f b43d db47 7cbe
000002b0: 557e 443d 54f8 14be a0d7 363e 8d61 85bd
000002c0: 5e7d 083e b1fc c8bc 9ad5 383e 53f9 8fbd
000002d0: 6679 0abe 5852 92bd 2597 d9bd f8a4 11bd
000002e0: bb84 09be 6581 1a3e 1901 11be 95cc 71be
000002f0: 28ab 5ebe 0373 c6bd f620 253e 5139 323e
00000300: 750a 553e 37e1 0fbe 99a3 9dbd 5672 bc3d
00000310: 4ded 2e3d c619 273d 3f7c 933d bea7 11bd
00000320: 79bd 1e3e bb71 afbd d600 0bbd e97a 61be
00000330: bd06 523e 6bba 9e3d d3a0 823e cfe3 0c3e
00000340: 7147 5abd aa39 a23d 1610 033e 6793 02be
00000350: efbf 023c 6d3c adbc 21b4 99bc 7a8c a43d
00000360: a1ab e3bd fae4 89be 427e c1bd a847 d1bd
00000370: 9cee 593d 9a16 ffbd 7436 be3c 5901 043e
00000380: 1a6f 793d a4c4 1dbe 8f2f 94bd cc6a 093d
00000390: 5664 453d 8f89 b23c d8ad 343e 877b d3bc
000003a0: c35d 9e3d 169c 273e eb22 443e f07e 65bd
000003b0: 31a7 013e babb f2bd 0217 0b3b 5cb3 6d3e
000003c0: 45b1 7f3e 7cf6 043e 4734 30be 4e39 8ebe
000003d0: 8381 db3d 2e33 1d3c 49aa b4bd 109a 52be
000003e0: 757b 1fbc eb49 df3d 4287 4abd 043f 913c
000003f0: 56ba 3fbe 9d0c 13be 414f 3dbe 5f67 353e
-0.21155326 0.090831466 -0.025350923 0.06077811 0.097147614 -0.1907877 -0.18983088 0.22598338
0.121558405 0.17668498 0.062457915 -0.024144443 -0.034055654 0.025510632 0.071126096 -0.064250775
0.20572516 0.0072998754 0.31338212 -0.1081463 -0.11239706 -0.154758 0.14180261 0.12839103
0.0360643 -0.099011056 -0.12422014 -0.14449258 -0.011115958 0.09393517 0.14843318 -0.13917476
0.16434078 0.24032085 -0.15680963 -0.17875434 -0.16122487 0.20559397 -0.06554607 0.021123812
0.13602668 0.1318956 0.33652794 0.19608487 -0.14440292 0.32792243 -0.12468354 -0.069744475
0.21534243 -0.027796261 0.22665088 0.020346818 0.09503312 -0.1731254 -0.08727486 0.2513253
0.06761208 -0.06248007 -0.032027073 -0.16490865 -0.08756604 0.20075206 -0.18808351 -0.05558793
0.09547744 -0.1349747 -0.122108564 0.0851497 -0.032069962 0.13103901 0.04932653 -0.19731688
0.07311394 0.1825797 -0.10561633 -0.11897941 0.14182293 0.2867864 -0.05824194 -0.042930942
-0.11952582 0.09835469 -0.092509806 -0.13541111 0.29995117 0.0706349 0.2326381 0.21029286
-0.122647025 0.10875153 0.14888375 -0.3052613 0.18996795 0.1304324 -0.007620761 0.21583296
-0.17894146 -0.14606692 -0.18907726 0.099299915 -0.16562665 0.16954572 0.026933001 -0.07040695
-0.1745709 -0.07093489 -0.17620248 -0.018228823 -0.022878975 -0.16149674 0.1440152 -0.110756375
0.29320815 -0.12758118 0.14249822 -0.13568604 0.101079985 -0.059986632 0.19847073 0.13625263
-0.14460129 0.23746258 -0.43054277 0.29967812 0.024608517 -0.14801237 0.106626034 -0.10354669
0.20349365 -0.071606144 0.006424411 -0.061781988 -0.18625143 0.20547804 -0.03240573 0.19331928
0.15223521 0.04211802 -0.0037922761 -0.09727289 0.062081963 0.23195542 -0.028427772 -0.004309981
0.15103692 0.1386483 0.16322331 0.03169955 0.015459814 -0.00045461417 -0.04181312 0.14413969
-0.06635472 -0.0887798 -0.19489369 -0.041389465 0.04779516 -0.043963995 -0.109306216 0.21196152
-0.19195877 -0.23870796 0.04198392 -0.12728421 -0.22609027 -0.13162029 0.078112096 -0.0814705
0.032253962 -0.08160998 0.087919615 -0.24636786 0.047972042 -0.14547855 0.17855692 -0.06512747
0.13329074 -0.024534555 0.18050233 -0.07029977 -0.13522872 -0.07144612 -0.10624532 -0.035557717
-0.13429539 0.15088423 -0.14160575 -0.23613198 -0.21744978 -0.096899055 0.16125855 0.17404677
0.2080477 -0.14050756 -0.076972194 0.09201495 0.042706776 0.040796064 0.072014324 -0.035560362
0.15501966 -0.08566614 -0.033936344 -0.22019543 0.20510383 0.077504 0.25513324 0.13758777
-0.053290788 0.07921155 0.12799105 -0.12751542 0.007980331 -0.021146977 -0.01876265 0.08034606
-0.1111672 -0.26932508 -0.0944791 -0.102187455 0.05320607 -0.12455483 0.023219325 0.12891139
0.06089697 -0.15407044 -0.072356336 0.033549115 0.04819139 0.021794109 0.17644441 -0.025815738
0.077327274 0.16368136 0.19153945 -0.05602926 0.12661435 -0.11852212 0.002122343 0.23212951
0.24969967 0.12984651 -0.17207442 -0.27778095 0.10718062 0.009594722 -0.08821542 -0.20566583
-0.009734024 0.109027706 -0.0494454 0.017730244 -0.18723425 -0.1436028 -0.18487264 0.17715214

lstm_model_1/input/forward_lstm_2/lstm_cell_7/bias1 f4 [128]
00000000: f14f c2bc 2d13 18bc 601f 2cbc e662 173d
00000010: 0894 f03c 4ed9 913c f989 c4bc b8e3 fe3b
00000020: 5801 cc38 cb00 143c 6ac4 633c 3f86 873c
00000030: 8ea9 a9bb eb9b 803d eaef 9dbc aa05 5b3c
00000040: 250b ef3c 4f9f 98bb 42d3 eb3c 16d4 e13b
00000050: a115 d63c 4468 d93a 369e e73b 767a 25bb
00000060: a98e 70bc 11d8 173d b102 92bb 1473 943c
00000070: bba3 223d 6488 da3a 6ccb 543d 16af ef3c
00000080: af19 803f 1c86 7f3f 7e46 7c3f 9cb7 823f
00000090: 6d81 843f 3a37 823f 8adf 793f 8686 833f
000000a0: f9fc 803f 8c2b 813f b2f6 813f 0165 7f3f
000000b0: eebd 7e3f 3292 803f 3f9a 813f 438a 803f
000000c0: 414b 823f 3f59 773f d0cf 803f c872 7f3f
000000d0: b681 7e3f 5b58 7f3f f152 813f cce1 7f3f
000000e0: 0b01 7e3f 9878 7f3f 2ee2 7a3f 96e3 823f
000000f0: d649 7d3f b0ae 7f3f 0fdd 743f b750 843f
00000100: c664 063d 2e73 cf3c a1aa 303d 62ce e33c
00000110: 9bce 10bb 0f46 b03c f1f2 113c 77b4 34bc
00000120: 4dfe 13bc a5cd 9bbc 9924 3a3d 0e9c 953c
00000130: a0f4 cb3b 77ea 893b 378d 09bd fe43 583d
00000140: 94c8 3ebc fe3b d83c 1e10 663c dbb8 c63c
00000150: ee77 b13b 602f 88bc 6b7a df3c f771 84bc
00000160: 27a6 c1bb 12fb 40bc f330 f0bc 97df 7e3b
00000170: 59c5 fcbb 5b9f 5c3b 668e 75bb 82ae deba
00000180: 78b7 293c 5d44 d1bb d77f 1f3b dfc7 193d
00000190: ca17 673c 6605 933c f215 fabb a4a0 fc3b
000001a0: 623e e63c fb0b 8e3c 6c9a 003d e18f 6a3c
000001b0: 56a8 0dbc 52b1 693d fc6e ef3c 0099 033d
000001c0: 1366 b43c 20a5 a1bc c77d ac3c fd0c 5f3a
000001d0: 7c94 a43c 5b21 c3bc 77ab d83c c6ff a33a
000001e0: 91b2 c6bc 4cd8 083d d16c d739 aa0a 4f3c
000001f0: c44a 633d 6ea9 e23c 8ace 743d 155e 0a3d
-0.02371976 -0.009281916 -0.010505527 0.03695955 0.029367462 0.017803814 -0.023991572 0.007778611
9.727728e-05 0.009033392 0.013901809 0.016543506 -0.005177683 0.06279739 -0.019279439 0.01336805
0.029180119 -0.004657663 0.028787259 0.0068917377 0.02613336 0.001658686 0.0070684208 -0.0025249994
-0.01468245 0.03707129 -0.0044558872 0.01812128 0.039706927 0.0016672728 0.05195181 0.029258292
1.0007838 0.9981401 0.9854506 1.0212283 1.0351998 1.0173104 0.9760672 1.0275428
1.0077201 1.0091414 1.015341 0.99763495 0.9950856 1.0044615 1.0125197 1.0042194
1.0179216 0.96620554 1.0063419 0.9978452 0.99416673 0.99744195 1.0103437 0.99953914
0.9922034 0.99793386 0.9800137 1.0225704 0.9894079 0.99875927 0.9564981 1.0337132
0.03281095 0.025323477 0.043131474 0.027808372 -0.0022095803 0.021517782 0.008908019 -0.011029354
-0.009032798 -0.019018957 0.04544506 0.01826289 0.00622423 0.0042088586 -0.03358194 0.052799217
-0.011644501 0.026395794 0.014041929 0.024258068 0.005415908 -0.016624153 0.027280053 -0.016167624
-0.0059096995 -0.01177861 -0.029320216 0.0038890594 -0.0077139554 0.003366432 -0.003746891 -0.0016989263
0.010358684 -0.0063863234 0.0024337673 0.037544128 0.014104793 0.01794691 -0.0076320106 0.0077095795
0.028105918 0.017339697 0.03139727 0.01431653 -0.008646091 0.05705387 0.029227726 0.032128334
0.022021329 -0.019732058 0.021056069 0.00085087103 0.020090334 -0.023819616 0.026448948 0.001251214
-0.024255069 0.0334094 0.0004108907 0.01263682 0.055491224 0.027668681 0.059767283 0.03378113

while/MatMul_12 f4 [128, 32]
00000000: 984e 44bd c26a 153d 6f00 9bbd e6a6 e63c
00000010: 0170 7abd 127a 0a3e b1d1 663d 709f 5fbd
00000020: a5f2 6a3d 1dc7 0f3d 641c d13d a6d9 7c3d
00000030: ff8c 5f3d 9205 7dbd a514 8c3d b5f8 7dbb
00000040: fce9 073d 51d1 6cbe ccbb bdbd a424 e73a
00000050: dc2a 063e cb5e 3dbc 6d7f 44bd 01cd d93c
00000060: d5cc 2fbd 68a5 cf3d f6dd de3d aa3f a93d
00000070: fd2d 523e 13e8 c63d ca0f 4e3e b94e dfbd
00000080: 9682 34bc 5284 33bd b5ea 39be 4e7e 7e3d
00000090: e824 dbbd 4069 a3bc 38fd 3abe fb6c 83bd
000000a0: a2b1 ae3d 1837 7b3c 641a 3ebd f29e 1bbe
000000b0: a383 183e 00e6 813c d6c2 1e3c 305b d93d
000000c0: 16ac ab3d 105a c93d 5f55 153e f0a5 a6bd
000000d0: 16ac 94bd 9d43 1fbe 4421 d9bc dbc8 c2bc
000000e0: ec3d 6cbe cb4f aabd c9dd 2dbe 4c76 c23d
000000f0: 3752 16be e11d debc 410a fa3d e294 44be
00000100: 6d76 883c d926 453d 08d0 8c3d 2f06 dc3b
00000110: 2815 973d d5c7 bbbd 5767 b6bc deb0 fcbb
00000120: 6795 d2bc b65a b4bd e45a 62bd 5e9d 60bd
00000130: 808c 703d 93dd d13c 10d5 a5bd e975 9d3d
00000140: ae00 13be 343d d0bd 0300 703d f974 78bc
00000150: 4094 69bb 3ca3 32bd c751 1e3d a520 fcbd
00000160: 3319 963a 556b ce3d 8ab1 9bbd 2567 083e
00000170: 8153 f03c 1012 0b3e b65b 683e 4670 9d3d
00000180: eae7 16be 1844 fe3c 0f94 b0bd 9997 153d
00000190: e5a5 64be 42a4 62bc 92b6 3cbe 6981 28bd
000001a0: 8b2e 343d 11f3 0abc 2fb4 173e ff88 96bd
000001b0: 09c4 b1bc 9464 463d ac00 003e 3e5d 8f3d
000001c0: d34d 66be 3c48 b63c aca2 8bbd ce8f 433e
000001d0: 7285 41be 1fa5 323d f495 323e 2d5b 723d
000001e0: b89c 5bbd 5941 2a3d 4113 903d 99f5 2ebe
000001f0: 9953 61bd f662 813d 131d 133e 2f4a b03d
00000200: 1fe8 cfbd 06e4 eabd 3895 f6bc b47e 5e3d
00000210: 0c13 b4bb 92cc 1ebd bb29 d1bc 6797 f3bd
00000220: 3680 963b 6717 113e a1b3 9d3c 1169 d43c
00000230: 4059 573d 7777 e33d c057 2d3e dc0d ae3c
00000240: 63a7 f53d 95d6 443d 79ed 563d 4590 283e
00000250: ead8 0cbe 013d d33c 431b 353a e62f b6bd
00000260: ccaf 6f3c a5fa f43d 020f 37bd 9d43 2bbc
00000270: 84b6 27be 723f e1bd 1abb 45bd 4a73 8dbb
00000280: 978e 77bb 4dc3 14be 007d 54be 7fac a83c
00000290: a3e6 f5bd 9ef3 fbbd d158 cabd 2761 29be
000002a0: ff1f 4abd 5d94 15be d72e 853d 39c0 7f3d
000002b0: 303c f8bd b7b9 98bd 50e6 bb3c b56e 1b3e
000002c0: 3b80 5d3d fd00 aabd e28b bc3d 06ed fa3b
000002d0: 49d9 0a3e 7e68 043e 6695 003c 268c a23d
000002e0: 6562 503d cf09 fbbd 4ba1 9c3c 6807 083e
000002f0: 153e a53d 24e9 5c3b 2138 adbd 2fa1 1d3d
00000300: ae77 1a3d 820c 96bd c756 2b3e 7194 983d
00000310: 8370 11bd 6545 33be aec3 993d a7d9 1e3e
00000320: 3771 efbc 8927 61bc abe2 383c b319 3abd
00000330: f2b4 84bd cab4 15bd b33e cd3c a39c ebbc
00000340: 3863 10be ca4d 20bd 7312 513d e49d 493d
00000350: 1e3e ffbd a682 f93d 0c04 3cbd caa5 78bd
00000360: 0abc 1cbd 20e0 143c 976e 263d 220e 0b3e
00000370: 4fbb 61bd 1c43 a9bd d23a e2bd af84 83bd
00000380: b62a 10be 69d9 423d 11b4 843d 0a7f 86bc
00000390: 07da a63c 41d0 a23c aae0 3e3b e70b 1bbe
000003a0: 066e 9fbd c503 04be 9622 8f3d 2af8 2e3e
000003b0: ca5c 6a3c 0b21 403c 0845 323e 7968 f03b
000003c0: 3df3 083e d65c 9fbd 3c4e 7fba 552e c9bd
000003d0: f715 d0bd 0e5f 073e 08a7 9dbc 469c 963d
000003e0: f7b6 0f3e b1c9 7cbc 1942 1fbe 298b 53bd
000003f0: 5b95 6ebc 17cb df3d 1b11 2c3e 6f95 eb3c
-0.047926515 0.036478765 -0.07568442 0.028155755 -0.06114197 0.13523129 0.05635232 -0.05459541
0.05736031 0.035102 0.10210493 0.061731003 0.054577824 -0.06177289 0.06839875 -0.0038752977
0.03318213 -0.23126723 -0.09264335 0.0017634821 0.13102287 -0.011558245 -0.047973085 0.026587011
-0.042919952 0.101389706 0.108821794 0.08264096 0.20525356 0.097122334 0.2012321 -0.10903687
-0.011017462 -0.043827362 -0.1815594 0.062132172 -0.10700399 -0.019947648 -0.18260658 -0.06417271
0.085299745 0.01533296 -0.046411887 -0.15197352 0.14893965 0.015856743 0.009690007 0.10613096
0.08382432 0.09831631 0.14583348 -0.08137119 -0.07259385 -0.15553136 -0.02650512 -0.023777416
-0.23070496 -0.083160006 -0.16979136 0.094952196 -0.146798 -0.027113857 0.12208987 -0.1919742
0.016658032 0.04813275 0.06875616 0.0067146043 0.07377082 -0.09168974 -0.022266073 -0.007711514
-0.025706006 -0.08806364 -0.05526246 -0.054837577 0.05872774 0.02561835 -0.08097279 0.07688505
-0.14355728 -0.101679236 0.05859376 -0.015164607 -0.0035641342 -0.043612704 0.038652208 -0.12310914
0.0011451602 0.10079066 -0.07602222 0.13320597 0.029336693 0.13581109 0.22691235 0.0768743
-0.14736906 0.031038329 -0.0862199 0.036521528 -0.22328909 -0.013833107 -0.1842902 -0.04113904
0.0439897 -0.008480803 0.14814828 -0.07350349 -0.021699922 0.048435763 0.12500256 0.070002064
-0.22490625 0.02225124 -0.068181366 0.19097826 -0.18898562 0.043614503 0.17440015 0.059168983
-0.053616256 0.041566227 0.070349224 -0.17085876 -0.055011366 0.063177034 0.1436656 0.086078994
-0.101516955 -0.11469273 -0.03010045 0.054320052 -0.0054954346 -0.038769312 -0.025532594 -0.11894112
0.0045929207 0.14169084 0.019250693 0.025929006 0.05257535 0.111067705 0.16928005 0.021246843
0.11994817 0.048056204 0.052472565 0.16461284 -0.13754621 0.025785925 0.00069086644 -0.08895855
0.014629316 0.11961869 -0.044692047 -0.010453132 -0.16378218 -0.10998429 -0.048274137 -0.004316722
-0.00377742 -0.14527626 -0.20750809 0.020590065 -0.12006881 -0.12302326 -0.09880222 -0.16540967
-0.04934692 -0.14607377 0.065030746 0.062439177 -0.12120855 -0.07457297 0.02293697 0.1517895
0.05407737 -0.0830097 0.09206368 0.00765765 0.1355945 0.12930486 0.007848119 0.079368874
0.050875086 -0.1225773 0.01911988 0.13284075 0.08068482 0.0033708299 -0.08457971 0.038483795
0.03771179 -0.073266044 0.16732322 0.07450188 -0.03550769 -0.1750694 0.07508026 0.15512715
-0.02922879 -0.013742336 0.011284511 -0.045434665 -0.06479825 -0.036549367 0.025054311 -0.028761214
-0.14100349 -0.039136685 0.051042985 0.04922284 -0.1246302 0.12183122 -0.045902297 -0.060704984
-0.038265266 0.009086639 0.04063281 0.1357961 -0.055110272 -0.08264753 -0.11046375 -0.06421792
-0.14078793 0.04757062 0.064796574 -0.016417999 0.020367635 0.019874694 0.002912561 -0.15141259
-0.07784657 -0.12892063 0.069890186 0.17086855 0.014304349 0.011726628 0.17409146 0.007336673
0.13374038 -0.07781379 -0.0009739136 -0.0982329 -0.101604395 0.13219854 -0.019244686 0.073540255
0.1403464 -0.015428946 -0.15552558 -0.051646385 -0.014561976 0.10927408 0.168034 0.028757779
